NERSource/skipgram_radical.pth (torch, 53207 bytes, 2 tensors)

in_embed.weight f4 [259, 25]
000000 4e 4b 65 bd 64 bf 2d be 71 d5 56 bd d9 ab cb bd
       -0.05598002 -0.16967541 -0.052449647 -0.09944887
000010 9f 2c 29 bd 6a dc 14 ba 9b 7c 0f bd 32 46 65 bd
       -0.04130232 -0.0005678596 -0.035030942 -0.055975147
000020 ee 4a 38 bd a6 f3 1d be ac e8 b1 bd ff fe b5 bd
       -0.044993334 -0.15424976 -0.08686957 -0.08886527
000030 04 46 b1 bc 6b 40 55 bf 51 a8 62 bd ec ed 48 3e
       -0.021639831 -0.8330142 -0.0553363 0.1962201
000040 43 03 63 3c 7d 94 b0 3f ce ce 07 3d 66 ab 10 3e
       0.013855758 1.3795315 0.03315621 0.14127883
000050 48 3d 88 bd 23 c4 af 3c 8e c9 ce 3d 79 22 8f bd
       -0.066523135 0.02145583 0.10097037 -0.06988997
000060 19 68 88 ba 7a 20 38 be 50 71 25 3d 7d 34 89 3d
       -0.0010407 -0.17981139 0.040391266 0.066994645
000070 47 8b 5a bd 23 75 6f 3c 7f 11 ab bd 1b 30 56 3c
       -0.05335548 0.01461533 -0.083529465 0.013072993
000080 7d 46 2f be 2f c0 e7 3c 82 bc a8 3d 21 65 75 3d
       -0.17116733 0.028289882 0.0823908 0.059910897
000090 54 5b f1 bd c5 56 eb 3d 4e 35 2d 3e 91 cc c6 bd
       -0.117849976 0.11491159 0.16914865 -0.09706987
0000a0 9a 1a 40 be e2 87 2d bd 76 db 08 3e bb e8 0c bd
       -0.18760148 -0.042365916 0.13364968 -0.034401637
0000b0 d6 e1 9a bc 9e 58 d4 3d 50 01 01 3e b1 c4 ab bd
       -0.018906515 0.10368465 0.12598157 -0.08387125
0000c0 5c 84 b0 3d 81 d1 26 bc 66 cf 99 3d 1c 57 37 be
       0.086189955 -0.010181786 0.07510261 -0.17904323
0000d0 c5 38 1f 3e b6 da 11 bd a8 06 c2 3c f0 ed 61 3e
       0.15549 -0.03560897 0.023684815 0.22063422
0000e0 8a 65 1e bd a3 fb 79 be 8c 12 86 be 21 96 2a bd
       -0.038671054 -0.24412398 -0.26186025 -0.04164708
0000f0 ce 17 c3 bb f2 c7 4b bd c1 19 85 bc 4e 59 97 3e
       -0.0059537655 -0.04975123 -0.016247632 0.29560322
000100 73 44 ea bd 3c 18 c1 bc 20 99 bb 3c 1a 59 7a 3d
       -0.11438837 -0.023571126 0.022900164 0.06112013
000110 9e 6e e1 3c 26 13 33 3e 8f 55 e4 3d 93 8b 4e 3e
       0.027518567 0.17487773 0.111491315 0.20170431
000120 96 bc 62 3d a2 57 78 3c 90 88 78 bc 5c 2a 8b 3d
       0.05535563 0.015157612 -0.015169278 0.06795189
000130 be 06 02 3d 47 15 f9 3d 86 26 bc bc 48 f1 97 3b
       0.03174471 0.121622615 -0.022967588 0.0046369173
000140 3c d6 0a be 53 00 fa bc 80 41 e5 bd e2 58 80 3d
       -0.13558286 -0.030517733 -0.11194134 0.06266953
000150 40 81 d9 3c 04 8f 05 be 24 55 af bd b3 0f 1e be
       0.026550889 -0.13042837 -0.08561161 -0.15435676
000160 53 7d 63 3e 2e fd 96 3d 08 fa 8a bd 0d 45 81 bd
       0.22215776 0.07372509 -0.06785971 -0.063119985
000170 7c 51 b2 3d 18 8a 7f be ec 53 c2 bd 60 d3 6e 3e
       0.08706948 -0.24955022 -0.09488663 0.2332282
000180 3b e9 2c 3d 64 d0 f4 bd bb b2 db bc e6 fb 96 3e
       0.042214613 -0.1195381 -0.026818624 0.29489058
000190 f2 11 cd 3d dc 33 65 bc cf ce bf bd 14 34 24 bc
       0.100131884 -0.013989415 -0.093656175 -0.010022182
0001a0 3b 97 a7 be 71 fe 26 be 3c 88 2c be 25 45 73 3e
       -0.32732567 -0.16307999 -0.16848844 0.23756845
0001b0 bc 1f 21 3e ee 11 6b 3e e3 f0 36 be d0 ae 25 3e
       0.15734762 0.22956058 -0.17865328 0.16179967
0001c0 e9 45 1d 3e d2 da 55 3e cc 12 a4 bd 9a c9 1a 3d
       0.153587 0.20884255 -0.08011398 0.03778992
0001d0 e2 21 75 bc 6a f7 85 3c d2 c8 a5 3d 87 8f 31 3f
       -0.014961692 0.016353328 0.08094944 0.6935963
0001e0 c5 9a 77 be 8d b8 55 3e 69 3d ee be 87 2f c0 3d
       -0.24180134 0.20871182 -0.46531227 0.09384065
0001f0 ce fb 4b 3e be fa 9d be ec cd 7a 3e 2f f5 b4 3d
       0.19920275 -0.30855364 0.24492615 0.088358276
000200 90 d1 97 3e e8 3c 54 3d ca cb 95 3b a6 32 a9 3d
       0.2965207 0.051815897 0.0045714127 0.082616135
000210 d9 ce 58 3e ba 7d aa 3d a3 77 92 be a1 9e 06 3e
       0.21172656 0.08324762 -0.286069 0.1314645
000220 ed 7a f6 3c 26 d9 34 3e 0a 60 69 3e b3 44 13 3d
       0.030087912 0.1766096 0.22790542 0.03595419
000230 39 ad 61 3e a0 01 bb 3d e2 b3 dd 3c a2 83 41 be
       0.22038735 0.09131169 0.027063314 -0.1889787
000240 e0 c2 4f bd f6 a5 0e bd 30 5e 21 3d ff 35 a0 bd
       -0.050722957 -0.03482624 0.039396465 -0.07822799
000250 3b d5 8f 3d 6d 6c 90 3d 43 a5 78 3e 92 e3 05 3e
       0.07023092 0.070519306 0.24281792 0.13075092
000260 49 49 13 3d 38 96 2c be 68 fa 3b 3e 1f bf 6b bd
       0.035958562 -0.16854179 0.18357241 -0.057555314
000270 5f bc 63 3e 02 35 c1 bd e9 86 63 3e a1 47 c2 bd
       0.22239827 -0.094339386 0.22219433 -0.094863184
000280 7c 29 38 3e cf ad cd bd 20 dc 89 bb b2 d1 3a 3e
       0.17984575 -0.10042917 -0.004207149 0.18244055
000290 75 8e 93 bc 07 99 11 be e7 af ed bd ab 06 f5 3d
       -0.018012265 -0.14218532 -0.11605816 0.119641624
0002a0 a0 f9 c2 3c f6 ca c3 3d 61 d0 c1 bd c6 70 7d bd
       0.023800671 0.09560196 -0.09463573 -0.061875127
0002b0 6a 0d 10 be 02 ba e8 bc c9 cf 11 be 81 46 bc bc
       -0.14067617 -0.028409008 -0.1423942 -0.022982838
0002c0 25 7e 48 3d 02 08 85 bd 04 30 7e 3e f6 d4 34 3e
       0.048948426 -0.06495668 0.24823004 0.17659363
0002d0 43 c8 e3 bd 12 bb c8 3c 84 04 1e 3e 4c 1e d1 bd
       -0.11122181 0.024503265 0.1543141 -0.10210857
0002e0 54 11 b1 bd 44 5d 00 bb 55 d6 27 3e bf ab 56 bd
       -0.08645883 -0.001958684 0.16390355 -0.052409884
0002f0 fc 38 9a 3d 8f ff 17 3e 01 ce 7d be dd 24 c6 bb
       0.075304 0.14843582 -0.24785616 -0.006046875
000300 63 46 73 3e 02 1a f7 3d 1a 72 af bd 6c 14 09 bd
       0.23757319 0.120655075 -0.08566685 -0.03346674
000310 ad 2b 26 be 0b 5d 34 be 8b ed 52 3d de 14 e5 bd
       -0.16227598 -0.17613618 0.05149607 -0.11185621
000320 2e ac 82 3c 7b 19 42 be 80 60 43 bb 20 99 72 3e
       0.015951242 -0.18955033 -0.0029812157 0.23691225
000330 74 d2 7d 3c 73 a4 01 bd 04 a1 6d bd 63 cc 90 be
       0.0154920705 -0.03165097 -0.058014885 -0.28280935
000340 f1 12 4f 3d e4 45 7a 3d 5c d3 bf 3e 39 17 be 3e
       0.050555173 0.06110181 0.37465942 0.37127092
000350 49 b5 27 bd c9 58 12 3d 45 73 8a bd e2 a5 84 bd
       -0.04094437 0.035729203 -0.06760267 -0.06476952
000360 7b c6 24 bd 1f 27 a8 3e ea 62 0a 3e 65 6f 08 3b
       -0.04022835 0.32842347 0.13514295 0.002081835
000370 95 75 7b 3e 81 a9 23 3c 98 a2 0b be ca 76 f1 ba
       0.24556573 0.009989143 -0.13636243 -0.0018422243
000380 81 4d 02 3c 4c 38 8b be 8e 7d 0f bd d3 5e ce 3d
       0.007953049 -0.2719139 -0.035031848 0.1007668
000390 86 aa f8 bd a1 76 5b bc ce ba fb 3d 05 e4 86 bd
       -0.121419 -0.013394983 0.122914895 -0.0658646
0003a0 a0 56 bf bd df dc 9a bc e5 8b 90 3e 9e ef fd 3d
       -0.09342694 -0.018904148 0.2823173 0.12399219
0003b0 47 80 18 3d 5e 4d dc bd 38 f7 45 3e 7c 84 da bb
       0.03723171 -0.10756944 0.19332588 -0.0066686254
0003c0 0d 03 2e be 02 30 6d bd 79 57 0a 3e 67 24 84 3c
       -0.16993351 -0.057907112 0.1350993 0.01613064
0003d0 7b 3f f3 3b 9d 35 82 be 5a 09 06 3e 8b ae 10 3e
       0.007423339 -0.2543153 0.13089505 0.14129083
0003e0 7b 0d cd 3c a0 01 9b 3e 97 9e 8c 3b da 3e 9e 3e
       0.025030842 0.30274677 0.0042913663 0.30907327
0003f0 79 db d6 3c 1a df dc 3d c3 bb f3 3d d8 b8 76 be
       0.0262277 0.10784741 0.11901047 -0.2409395

out_embed.weight f4 [259, 25]
000000 79 3f ac bb eb 1f 5b be 2f ba a2 3c 67 e9 46 3d
       -0.00525659 -0.21398894 0.01986417 0.048562434
000010 9d 79 a9 3d 9c 3f 74 3d a7 7a 53 bc 12 64 1e be
       0.08275149 0.059630975 -0.012907661 -0.15467861
000020 e8 4f 5d bd e8 4c f5 3d 77 42 be 3d c3 3c a6 3d
       -0.054031283 0.11977559 0.09290021 0.08117058
000030 a4 49 b9 3c 9a 97 9c bf b9 ba e4 bd 0e 73 f5 bd
       0.022618122 -1.2233765 -0.11168427 -0.119848356
000040 e6 1e 13 3d ba f0 37 3f a5 32 74 3b 93 73 81 3d
       0.03591814 0.71851695 0.0037261632 0.06320872
000050 9f 6e 7e 3d d6 8d a6 bc 90 da be 3d 36 77 89 3b
       0.062117215 -0.020331305 0.09319031 0.0041951193
000060 31 b7 9c 3c 0f 3b b6 bd 0f 82 35 3e 7b b0 1c 3e
       0.019130321 -0.08897983 0.17725395 0.15301697
000070 2e f5 53 be bb 89 83 3b 22 58 76 3c 47 ad 83 3b
       -0.20698997 0.0040142215 0.015035661 0.004018459
000080 c8 7a 70 3d be 8b 84 3d d9 e7 0d 3e 18 50 d7 3d
       0.058710843 0.06471966 0.13857974 0.105133235
000090 4d 54 88 3d 5a 8c 2c 3e 38 31 c4 3f 33 87 06 bd
       0.06656704 0.16850415 1.532752 -0.03284378
0000a0 b6 aa 96 be 66 bf 1f 3d 91 32 34 3f 1b ae c8 bc
       -0.29427117 0.03900089 0.7038966 -0.024497082
0000b0 ee 2b b6 bd 75 12 d2 3b b6 c9 b8 3d 48 52 6d be
       -0.08895098 0.0064108917 0.09022848 -0.23175919
0000c0 6a 5b 38 3e 10 8a 60 3d 9d 92 04 3e b3 5b d0 3b
       0.18003622 0.054819167 0.12946554 0.0063585876
0000d0 2a d5 df 3c 3b 6e 6c bd c9 39 20 bb 40 39 30 3e
       0.027323324 -0.05772231 -0.0024448505 0.17209339
0000e0 49 07 3c bd 9c 5c 5e 3d 5f 73 05 be 1a af ff 3d
       -0.045905385 0.054287538 -0.13032292 0.1248457
0000f0 78 ff e4 3c c0 5d 6b 3e 2e fb 86 3d 05 93 c3 3f
       0.027953848 0.22984982 0.065908775 1.5279242
000100 81 db 3f be d1 68 a6 be ca 76 fa 3c 34 f3 0f 3f
       -0.18736078 -0.32501844 0.030574221 0.56230474
000110 50 e6 9c 3c 5b 68 87 3d 27 7c 19 3e 94 b1 ff 3d
       0.01915279 0.06611701 0.14988767 0.12485042
000120 eb d6 30 be 70 9d 0d 3e e2 c8 d5 3d 07 c7 48 bd
       -0.17269485 0.13829589 0.10438706 -0.049017932
000130 9b ef 4d 3e 1b 25 a5 3d 6c 03 0e 3d f5 78 0e 3d
       0.20110933 0.08063718 0.034671232 0.034783322
000140 b6 f3 1a 3e ca 9e 8f bd 3b 42 4e 3d 7b 0f d6 3c
       0.15132031 -0.070127085 0.05035613 0.026130429
000150 fd 75 9e 3e 4a d6 64 3e 4c 02 44 3e bf 4c 00 bd
       0.30949393 0.2234737 0.19141501 -0.03132319
000160 f8 83 ba 3f 7d 3e 86 3d 3a 4d ab be ff ac 76 bc
       1.4571524 0.065548874 -0.33457357 -0.015055894
000170 09 ef 19 3f 9d 87 1b 3d 34 07 30 be 42 bb 0b be
       0.60130364 0.037971128 -0.17190248 -0.13645652
000180 31 f9 07 3e a4 bb 96 be 4c a5 39 3e fe 91 8b 3e
       0.13278653 -0.29440033 0.18129462 0.2725982
000190 9b 62 8b bd b6 be eb 3d 38 84 d1 3d 00 1c 4d be
       -0.06805917 0.115109846 0.10230297 -0.20030212
0001a0 2a 35 0c 3f 5e c7 8c 3e 9c 13 fa 3d c9 af 6f be
       0.5476862 0.27495855 0.122107714 -0.234069
0001b0 d3 26 63 be 53 92 a7 be b4 90 de 3e 97 14 8a bd
       -0.22182779 -0.32728824 0.43469775 -0.067422085
0001c0 cd 25 4b be e1 7a b2 3f 24 0c 06 3e 98 c6 91 be
       -0.19838639 1.394375 0.13090569 -0.28471828
0001d0 1a 15 9f 3d 8e 2d ec 3e 48 e7 df bd cb 80 31 bf
       0.07767697 0.46128505 -0.10932785 -0.6933715
0001e0 9d e1 6d 3e 1d de 97 be bd bf 4c 3e 35 6a c5 bd
       0.23230596 -0.29661646 0.19995017 -0.09639398
0001f0 dd 58 dd bd 5c f4 99 be b1 d5 a6 3e 5b 90 ce 3d
       -0.10807965 -0.30069244 0.3258491 0.10086127
000200 bf c9 7c 3e 04 ec af 3d 8f ba 5d 3d 19 87 03 3e
       0.24686335 0.08589938 0.054132994 0.12844504
000210 5e ef a1 3e 74 7c 97 3d f9 ec 26 be 4c 70 55 3e
       0.31627935 0.073967844 -0.16301335 0.20843619
000220 3e 5f 61 3e fd 6f 50 3e e7 a8 95 3f cd 19 32 3d
       0.22008988 0.2035522 1.169217 0.043481637
000230 13 47 90 bd 4b 70 c8 3d 26 1d 48 3e 43 e5 35 be
       -0.07044806 0.09787043 0.19542369 -0.17763238
000240 47 d3 f7 bd e7 bf 97 3b 3c e9 0c bd 12 1d 26 be
       -0.12100845 0.004631031 -0.034402117 -0.16222027
000250 1d f4 4b 3e 56 0e b8 3d 77 bd 75 3e 75 f9 3a 3e
       0.1991734 0.08987109 0.23998056 0.18259223
000260 71 67 bb 3c 34 58 00 be 8d e1 40 3e 1e dc da bd
       0.022876473 -0.12533647 0.18836041 -0.10686515
000270 88 df 35 3e d2 79 61 3b e3 7f 84 3e 92 39 eb bc
       0.17761052 0.0034404886 0.2587882 -0.028713975
000280 bd fa 6b 3e 15 a7 bc 3d fc 4c 1d 3c ac e5 8f 3f
       0.23044868 0.09211556 0.009600874 1.1241965
000290 f0 f7 b3 bd 39 e6 af be f9 90 27 bd 71 b6 b6 3e
       -0.08787525 -0.34355333 -0.04090974 0.35686067
0002a0 3c 3f 91 3c d2 17 96 3d c4 82 c0 bd 30 a2 60 bd
       0.017730348 0.07328762 -0.093999416 -0.054842174
0002b0 53 ce a5 be 5b e2 c8 3d e7 7a be bd 1f dd 29 3d
       -0.32383975 0.09808799 -0.093007855 0.041470643
0002c0 17 90 59 3d 3f 43 86 bc 98 d9 27 3d dc ab 9c 3d
       0.05311593 -0.016389487 0.040978998 0.07649967
0002d0 0d 7a 2b bd 8c b2 50 3a ae 4e 97 3e a9 94 e7 bd
       -0.041864444 0.0007961176 0.29552215 -0.113076515
0002e0 bf fc 97 bd 8a e6 a2 bc d4 dd 32 3e f9 0f 3e ba
       -0.07421254 -0.01988532 0.17467433 -0.0007250305
0002f0 57 d9 86 3f c9 08 5f 3e 31 29 46 be ac b4 a3 bd
       1.0535077 0.21780695 -0.19351651 -0.07993445
000300 56 e1 c9 3e 3a e1 28 3e 77 bd 1a be 61 4a 4c bc
       0.3942973 0.16492167 -0.15111338 -0.012468905
000310 5d 49 37 bd 88 d9 8a be c0 3c 0f 3e 47 55 84 bb
       -0.0447477 -0.27119088 0.13988018 -0.004038486
000320 75 ba dd 3d d8 29 2f be 59 f9 8b 3e 8c 1f 62 3c
       0.108265795 -0.17105806 0.27338675 0.013801467
000330 3f d7 16 be 14 69 49 bd ef b2 ed 3d f1 13 c8 bd
       -0.14730547 -0.049172476 0.116063945 -0.097694285
000340 e3 5c 9b 3d ce e5 8a 3d b8 eb c6 3d 35 78 9e 3e
       0.07586076 0.06782113 0.097129285 0.30951086
000350 b7 61 b6 3d 01 c5 3e 3f be 9d 69 3d c9 be 58 bd
       0.089053564 0.74519354 0.0570352 -0.052916322
000360 72 cf c6 bd 17 9c db 3e 9e 8e 10 bc 82 69 a9 bd
       -0.09707536 0.42892525 -0.008823065 -0.08272077
000370 11 f1 d6 3d 2f 64 05 be f2 84 91 be 8a 8c 0b 3e
       0.104951985 -0.13026498 -0.28421742 0.1362783
000380 a3 bc 25 3d 40 1b 96 bd 92 16 00 bd 3a 15 2a 3d
       0.0404631 -0.07329416 -0.031271525 0.04152415
000390 11 69 f6 bd 66 d0 07 bc 3a 2a 68 be 10 06 d8 bc
       -0.120317586 -0.008289432 -0.22672358 -0.026370078
0003a0 e1 ed 20 bd 85 d1 0e 3d a6 d6 00 3e d6 ae 30 be
       -0.03928936 0.034867782 0.12581882 -0.17254195
0003b0 14 70 a4 3d dc 54 dd bc 85 ac 72 3f 4b 9e 6f bd
       0.0802919 -0.027018003 0.94794494 -0.05850057
0003c0 ca 61 84 be 35 7d 4b bd 11 98 36 3e 10 5e 73 be
       -0.25855857 -0.049679954 0.17831446 -0.23766351
0003d0 25 7e 88 bd dc c6 84 3e af 8b a0 3c 81 52 2e bd
       -0.06664685 0.25932968 0.019597856 -0.04255915
0003e0 e6 53 52 3b bd 08 90 3e 83 1f a9 3c f9 33 b0 3e
       0.0032093464 0.28131667 0.020644909 0.34414652
0003f0 4e bb b0 3d 0d 42 ef 3d f4 c3 0a 3e 8d c4 0e be
       0.086294755 0.1168252 0.13551313 -0.13942166
