NERSource/skipgram_pinyin.pth (torch, 245971 bytes, 2 tensors)

in_embed.weight f4 [1223, 25]
0.11319652 -0.01609077 0.001338978 -0.043770965 0.06845232 0.054054342 0.08451413 0.018493783
-0.76758105 0.06801971 0.042341676 0.019238327 0.02311479 -0.33345172 0.09568524 0.05955201
0.055124298 -0.35397798 0.064847715 0.093361236 -1.43085 -0.01023502 -0.0519982 -0.0102856895
-0.15482408 -0.118238084 0.029814923 -0.3042434 -0.03870259 -0.04089233 0.22244193 -0.45002264
-0.090948775 -0.22944055 -0.22898915 -0.26094797 0.28606802 0.047959942 -0.11140092 0.29196972
-0.028724555 -0.3075198 -0.092988506 0.18974008 -0.25380322 0.24913421 0.27419314 -0.2887256
0.33242267 -0.140386 0.101186045 0.005116569 -0.049128864 0.08697974 0.00041984112 0.113255344
-0.22828905 -0.05398739 -0.292593 0.0325125 0.2414988 -0.0794132 0.11671667 0.15158747
-0.015022938 -0.042717576 -0.031826116 -0.07230404 0.042607512 -0.11706158 0.13401057 -0.22509114
-0.056815844 -0.15310843 -0.14326136 0.62436944 -0.09178389 -0.10967403 0.1791847 -0.562424
-0.54250634 -0.27289113 0.62290967 -0.66953546 -0.1420012 -0.32041052 -0.05269956 0.58561975
-0.60003644 -0.30119634 0.20506324 -0.14977932 0.13351163 0.40779996 0.015596585 -1.1858172
-0.34669146 0.41858286 -0.77926356 -0.2738335 0.17612168 0.11382148 0.40208295 0.05139137
0.31206036 0.38829914 0.039888903 -0.32281858 -0.24351598 0.092657045 0.1677635 -0.38717803
0.09985451 0.05806141 -0.03121698 -0.01914723 0.06636302 -0.06655004 0.032645114 -0.2712551
0.34146792 0.1816905 -0.17410429 0.25722593 -0.03636105 0.3068247 0.122605324 0.11843803
-0.07103232 -0.1445623 -0.006106642 -0.48819822 -0.11816807 -0.28727517 -0.09648293 -0.008584997
0.2854025 -0.019415407 -0.050682742 -0.008958267 -0.085728556 -0.083603255 0.01445924 -0.14036241
-0.1897871 0.046071373 -0.40851194 0.23506908 0.2805144 -0.07944243 0.05275967 0.09291968
-0.22046189 0.21241511 -0.060309447 0.1838607 -0.27934536 0.10741552 -0.3221407 0.051948875
-0.08291338 -0.0111345975 0.23875643 -0.0148188425 0.17253141 -0.01683212 -0.03324706 0.04733374
0.22435825 -0.033087317 -0.069846354 0.021547567 -0.14790204 -0.2269169 -0.11306991 0.42127442
0.60307115 0.22082932 0.07351082 -0.009045567 0.123542145 0.24506232 0.15254988 -0.254077
0.18443859 0.056053806 0.3060143 0.33069578 0.011166109 0.014162785 0.0027080714 -0.24430011
0.019089721 -0.06996325 0.31394562 0.2899302 0.05647769 -0.060918525 0.087259784 -0.37134242
0.12278229 0.065855116 -0.14598484 0.14146194 -0.08240282 0.11545461 -0.193761 -0.26400506
-0.22727208 0.18502687 -0.15802267 -0.24104716 -0.22334094 -0.16800484 0.20218918 0.086347446
0.22091721 0.1253639 -0.08979164 0.116643906 0.4084592 -0.039554577 0.15510197 -0.09482764
0.012030977 0.04208998 0.0052299863 0.04913528 -0.23081714 -0.03768166 0.12307341 -0.062844485
0.10453743 -0.25791094 0.19905697 -0.3978036 0.25035927 -0.23296402 0.012097474 0.13117583
-0.0012449272 -0.27311596 0.090336576 -0.34149095 0.10696359 0.15806468 0.008179705 -0.02449113
-0.07421436 -0.3035338 0.3834533 -0.014810015 0.041872405 0.06628219 -0.04614254 0.022719638
00000000: 94d3 e73d cad0 83bc a580 af3a 2f49 33bd
00000010: bb30 8c3d 1668 5d3d bf15 ad3d 4680 973c
00000020: 3180 44bf eb4d 8b3d 776e 2d3d b299 9d3c
00000030: 3a5b bd3c 2fba aabe a0f6 c33d cfec 733d
00000040: 04ca 613d 9a3c b5be e1ce 843d 2d34 bf3d
00000050: 1826 b7bf c9b0 27bc 11fc 54bd 4f85 28bc
00000060: 348a 1ebe cf26 f2bd 6d3e f43c cac5 9bbe
00000070: 9b86 1ebd b77e 27bd d1c7 633e 5e69 e6be
00000080: 5a43 babd 77f2 6abe 227c 6abe f99a 85be
00000090: 8277 923e a571 443d 2a26 e4bd 0e7d 953e
000000a0: c24f ebbc 3c73 9dbe c270 bebd 394b 423e
000000b0: 7ff2 81be 0a1d 7f3e 0b63 8c3e d8d3 93be
000000c0: 4e33 aa3e 59c1 0fbe a13a cf3d e4a8 a73b
000000d0: 593b 49bd 6f22 b23d 1f1e dc39 6bf2 e73d
000000e0: 9bc4 69be e221 5dbd c0ce 95be d42b 053d
000000f0: 764b 773e 63a3 a2bd 2609 ef3d bf39 1b3e
00000100: c522 76bc a0f8 2ebd 1a5c 02bd 2414 94bd
00000110: 3785 2e3d fbbd efbd 113a 093e 4b7e 66be
00000120: bbb7 68bd 75c8 1cbe 1bb3 12be add6 1f3f
00000130: 31f9 bbbd c79c e0bd 327c 373e 05fb 0fbf
00000140: b2e1 0abf 63b8 8bbe 0277 1f3f ad66 2bbf
00000150: c368 11be d90c a4be 7edb 57bd 2deb 153f
00000160: fd9b 19bf 6836 9abe 19fc 513e c05f 19be
00000170: 46b7 083e 28cb d03e d288 7f3c dcc8 97bf
00000180: 8b81 b1be 7e50 d63e d17d 47bf e833 8cbe
00000190: 3e59 343e 3c1b e93d d1dd cd3e c27f 523d
000001a0: 60c6 9f3e 25cf c63e 8c62 233d 7a48 a5be
000001b0: 415c 79be fac2 bd3d 32ca 2b3e 333c c6be
000001c0: 8580 cc3d cdd1 6d3d c1ba ffbc a7da 9cbc
000001d0: 56e9 873d 634b 88bd e2b6 053d f3e1 8abe
000001e0: e2d4 ae3e 130d 3a3e 6548 32be 1eb3 833e
000001f0: 53ef 14bd 2118 9d3e 8018 fb3d a38f f23d
00000200: 6579 91bd 2408 14be 3a1a c8bb 1ef5 f9be
00000210: 1a02 f2bd bb15 93be d898 c5bd 16a8 0cbc
00000220: 4720 923e 0f0d 9fbc b598 4fbd b2c5 12bc
00000230: 7492 afbd 2f38 abbd 73e6 6c3c 2abb 0fbe
00000240: 8d57 42be 56b5 3c3d 7a28 d1be f3b5 703e
00000250: 959f 8f3e b6b2 a2bd 861a 583d ac4c be3d
00000260: c3c0 61be 5983 593e 0a07 77bd fb45 3c3e
00000270: 5b06 8fbe abfc db3d a0ef a4be 58c8 543d
00000280: 7dce a9bd e36d 36bc 917c 743e bbca 72bc
00000290: 13ac 303e 84e3 89bc 122e 08bd 06e1 413d
000002a0: 2bbe 653e 9186 07bd 9b0b 8fbd 8684 b03c
000002b0: a273 17be e75c 68be 3291 e7bd 48b1 d73e
000002c0: df62 1a3f 1521 623e d78c 963d dc33 14bc
000002d0: aa03 fd3d 9ef1 7a3e 0936 1c3e 6116 82be
000002e0: 78dd 3c3e ad98 653d e8ad 9c3e f550 a93e
000002f0: 0ef2 363c 070b 683c e679 313b cf29 7abe
00000300: 0c62 9c3c e448 8fbd 7bbd a03e bb71 943e
00000310: 2655 673d b485 79bd 42b5 b23d 9820 bebe
00000320: 4875 fb3d 0cdf 863d 0d7d 15be 66db 103e
00000330: cfc2 a8bd 7773 ec3d 4969 46be ac2b 87be
00000340: 03ba 68be af77 3d3e b2d0 21be 11d5 76be
00000350: 7db3 64be 7609 2cbe ae0a 4f3e eed6 b03d
00000360: 1f38 623e 655f 003e aee4 b7bd 00e3 ee3d
00000370: 9021 d13e fb03 22bd 0dd3 1e3e fe34 c2bd
00000380: 931d 453c 8b66 2c3d 4e60 ab3b 1342 493d
00000390: 545b 6cbe 1658 1abd e90d fc3d 9cb4 80bd
000003a0: b817 d63d e70c 84be 97d5 4b3e eaac cbbe
000003b0: 172f 803e 1f8e 6ebe 7c34 463c f552 063e
000003c0: d32c a3ba dbd5 8bbe 6202 b93d e7d7 aebe
000003d0: ba0f db3d b5db 213e 2b04 063c 9fa1 c8bc
000003e0: b3fd 97bd c868 9bbe fe53 c43e b5a5 72bc
000003f0: 6682 2b3d f5be 873d f6ff 3cbd 891e ba3c

out_embed.weight f4 [1223, 25]
0.20021069 0.00029487416 -0.032845937 0.23755932 0.10861996 0.0872745 -0.008188277 0.052691873
3.6681318 0.13178115 0.01816137 -0.073914535 -0.018360179 -0.359392 -0.0284246 0.049127392
0.04150209 -0.8769409 0.041141193 0.23386428 -2.298828 -0.19927905 0.01485854 -0.22121118
-0.23039117 -0.123463936 -0.062069386 0.28211257 0.15591803 0.02759897 0.044586398 0.50931853
0.07166042 2.320286 0.34483203 0.36939022 -0.4154004 -0.20385891 0.1675696 -0.46575963
-0.072515845 0.07713518 -0.34765244 -0.4293757 0.20166428 -0.04991556 -0.24941838 0.29676574
-0.54878134 0.21600203 0.00774718 -0.091582775 -0.0074814884 0.12493341 0.09128863 0.11194975
-0.10456625 -0.15687351 2.764274 -0.018010054 0.08413493 -0.25838548 -0.028915659 0.19500214
-0.060142126 -0.04361389 0.06342433 -0.3637416 -0.006359545 -0.02742842 -0.36133075 -0.098289326
-0.080138996 0.024929263 -0.037330195 0.45896566 -0.08722443 0.16991533 0.42478868 0.2651205
0.092357606 0.71208346 -0.035001922 5.1213627 0.3305064 0.36072564 -0.32438084 0.45773762
-0.54219264 0.55601895 0.017433666 0.383265 -0.61260635 -0.25413156 0.13922937 -2.476203
0.46906918 -0.53642386 0.7218463 -0.10301779 0.11941981 0.04198092 0.10797974 0.23461132
0.11444524 0.27425766 -0.41143546 -0.18213233 3.3277223 -0.15975398 -0.24880639 -0.4187382
0.045259763 0.06828382 -0.49765757 0.046946608 -0.08164343 -0.4297875 0.25853503 -0.14147401
-0.27609032 -0.21969777 0.1407539 -0.32872483 -0.11712687 0.21955293 -0.17216845 0.13215709
0.038790297 0.0031596627 -0.051474214 0.16999745 -0.2488729 3.231308 0.022477513 0.20493178
-0.25137126 -0.24301474 0.005202263 -0.22482869 -0.18845709 0.23232932 -0.39625445 -0.34509334
-0.00054578885 -0.5603154 -0.36066782 0.2677941 0.19268976 -0.023963843 -0.02910661 0.07500048
0.035156153 0.29512298 0.16052 0.09244213 0.24367185 0.0039325682 3.166093 0.1783342
0.17658484 -0.3569277 0.00969384 0.069564864 -0.05271621 -0.0442568 0.19987507 -0.26662162
-0.039709274 0.19186753 -0.65689117 -0.032347668 -0.06717994 -0.24714571 0.07766648 0.26782954
0.2947941 -0.20461345 0.113310084 -0.005670751 0.04121298 0.15319866 0.051131614 3.3039105
-0.12150131 -0.18946806 -0.13483655 0.15106355 0.10607585 -0.3399055 -0.050892536 -0.024812372
-0.32363662 0.10438197 0.35088158 -0.3094995 0.10325341 0.06101039 0.09031627 -0.46989337
0.04150273 0.10657111 -0.09163088 0.33487934 -0.09426141 0.17274661 -0.24152882 -0.29133326
3.5154064 0.17433675 -0.2019611 -0.24973778 -0.23511723 -0.026113916 0.15840368 0.12889923
0.23475805 -0.24821652 -0.14837895 0.18700634 -0.18833286 -0.113390155 0.1273885 -0.14307387
0.123267494 -0.07514003 -0.18205054 -0.019121442 -0.08267715 0.0069534327 0.018909633 0.25854602
0.028286373 3.2832227 0.14520344 -0.26650587 -0.05382627 -0.2924013 0.086037666 -0.14503756
-0.0325431 -0.06370393 -0.29721433 -0.41567814 0.15646736 -0.47868437 0.13565424 -0.01821227
-0.16001067 -0.2840263 0.27609578 -0.057705548 0.03987915 0.23743969 -0.0031219549 0.08783896
00000000: 0804 4d3e 5799 9a39 7689 06bd c042 733e
00000010: 2474 de3d f9bc b23d 1f28 06bc 6fd3 573d
00000020: acc2 6a40 a3f1 063e 27c7 943c 8160 97bd
00000030: 1668 96bc 3a02 b8be b5da e8bc ce39 493d
00000040: 18fe 293d 337f 60bf ab83 283d 1e7a 6f3e
00000050: ff1f 13c0 cf0f 4cbe 3c71 733c 2f85 62be
00000060: aaeb 6bbe a9da fcbd 783c 7ebd 0f71 903e
00000070: faa8 1f3e 3c17 e23c 3aa0 363d b362 023f
00000080: b3c2 923d 917f 1440 d38d b03e b720 bd3e
00000090: 5caf d4be 64c0 50be 5d97 2b3e 0c78 eebe
000000a0: 3083 94bd 0df9 9d3d 80ff b1be 22d7 dbbe
000000b0: 1581 4e3e 4274 4cbd 8867 7fbe aef1 973e
000000c0: ef7c 0cbf a32f 5d3e 0edc fd3b c08f bbbd
000000d0: 4627 f5bb 16dd ff3d 89f5 ba3d e945 e53d
000000e0: d526 d6bd 73a3 20be dde9 3040 d289 93bc
000000f0: ef4e ac3d 1a4b 84be 88e0 ecbc a4ae 473e
00000100: 9757 76bd 7aa4 32bd 9de4 813d 573c babe
00000110: bb63 d0bb 91b1 e0bc 5800 b9be ea4b c9bd
00000120: ea1f a4bd 7438 cc3c 8ce7 18bd 8cfd ea3e
00000130: b9a2 b2bd 49fe 2d3e e77d d93e e0bd 873e
00000140: fc25 bd3d 1a4b 363f 2d5e 0fbd 34e2 a340
00000150: 2338 a93e 08b1 b83e 3f15 a6be 965c ea3e
00000160: 23cd 0abf 4257 0e3f 0cd1 8e3c 4f3b c43e
00000170: c5d3 1cbf 881d 82be 2592 0e3e 1c7a 1ec0
00000180: d629 f03e 1353 09bf ebca 383f fefa d2bd
00000190: 6092 f43d 2ff4 2b3d 7b24 dd3d f33d 703e
000001a0: 4462 ea3d 806b 8c3e aba7 d2be e680 3abe
000001b0: 67f9 5440 8c96 23be 1ac7 7ebe da64 d6be
000001c0: 4d62 393d 63d8 8b3d f9cc febe 164b 403d
000001d0: ac34 a7bd 1b0d dcbe b45e 843e 90de 10be
000001e0: b65b 8dbe 74f8 60be ca21 103e 9f4e a8be
000001f0: 36e0 efbd 7cd2 603e ed4c 30be 3054 073e
00000200: 93e2 1e3d 5812 4f3b a0d6 52bd d013 2e3e
00000210: 8ad8 7ebe c0cd 4e40 c322 b83c a3d9 513e
00000220: bcb3 80be dbd8 78be bf77 aa3b 7e39 66be
00000230: e5fa 40be bde7 6d3e dde1 cabe 13b0 b0be
00000240: 4513 0fba d470 0fbf 74a9 b8be 4f1c 893e
00000250: 7750 453e d24f c4bc fc70 eebc da99 993d
00000260: e6ff 0f3d 5c1a 973e 5b5f 243e 4d52 bd3d
00000270: 1d85 793e c6dc 803b 45a1 4a40 3e9d 363e
00000280: a8d2 343e 3abf b6be e9d2 1e3c 0678 8e3d
00000290: f4ec 57bd 9e46 35bd 0dac 4c3e a182 88be
000002a0: 31a6 22bd ec78 443e 052a 28bf fd7e 04bd
000002b0: a395 89bd c413 7dbe 9a0f 9f3d f420 893e
000002c0: 41ef 963e 3086 51be 1e0f e83d b5d1 b9bb
000002d0: f1ce 283d 1ce0 1c3e 626f 513d 4573 5340
000002e0: aed5 f8bd ea03 42be 9812 0abe 67b0 1a3e
000002f0: 4c3e d93d 1808 aebe b174 50bd 5143 cbbc
00000300: b3b3 a5be 37c6 d53d c0a6 b33e b876 9ebe
00000310: 8676 d33d 08e6 793d bdf7 b83d dd95 f0be
00000320: c4fe 293d f441 da3d f9a8 bbbd 4e75 ab3e
00000330: 200c c1bd 7de4 303e 5553 77be a229 95be
00000340: 6bfc 6040 5585 323e e4ce 4ebe 43bb 7fbe
00000350: 92c2 70be daec d5bc 9334 223e 29fe 033e
00000360: 6a64 703e 792c 7ebe a7f0 17be 977e 3f3e
00000370: 54da 40be 1939 e8bd 2272 023e f581 12be
00000380: ab73 fc3d 04e3 99bd 756b 3abe 92a4 9cbc
00000390: a352 a9bd 9fd9 e33b 60e8 9a3c 2560 843e
000003a0: d3b8 e73c 5220 5240 36b0 143e 7573 88be
000003b0: ef78 5cbd a0b5 95be 8434 b03d ba84 14be
000003c0: ea4b 05bd 3577 82bd 7a2c 98be c4d3 d4be
000003d0: fb38 203e 1e16 f5be f2e8 0a3e e631 95bc
000003e0: d6d9 23be e56b 91be 6d5c 8d3e a75c 6cbd
000003f0: 5258 233d 6423 733e b699 4cbb eae4 b33d
