models/skipgram_radical.pth (torch, 53207 bytes, 2 tensors)

in_embed.weight f4 [259, 25]
000000 f7 b6 1c 3d 5b 9a 8d 3e a6 f8 ff bd dc ce 86 bc
       0.038260426 0.27656826 -0.12498598 -0.01645606
000010 78 af 0c 3e 8b f2 88 3b 45 7a e9 3c da 86 19 3c
       0.13738811 0.004179304 0.028500685 0.00937053
000020 7b 56 8d bd 9c 59 9a 3d 2b 03 01 bd c6 86 46 3c
       -0.069012605 0.07536623 -0.03149716 0.012117093
000030 4d 4b 95 3e 6f 3f a8 bf e4 69 2c bd 2e 07 07 bc
       0.29159012 -1.3144358 -0.042093173 -0.008241458
000040 86 0a 7a 3c ef 26 63 bf c1 93 ad 3d b3 ac f2 bc
       0.015261298 -0.8873128 0.084754474 -0.029623365
000050 c3 39 5a bd f3 77 b2 3b 62 45 52 3d b4 9e 27 be
       -0.053277742 0.005446428 0.0513357 -0.16369134
000060 1c e8 a5 3d 37 2b e3 3a c4 13 8c bd 53 71 04 be
       0.08100912 0.0017331605 -0.068397075 -0.12933855
000070 a2 eb e9 bd 64 8c e0 3d 60 22 2a be 1b 1f 80 3d
       -0.114218965 0.109642774 -0.16614676 0.06255933
000080 6d 5f d5 bd 55 6c ed bd 39 a2 e8 bd 05 5a 99 3d
       -0.10418592 -0.11592928 -0.113590665 0.07487873
000090 fd 60 d7 bc 56 bf 15 be 8d 76 30 be e0 7e 9c 3d
       -0.026291365 -0.1462377 -0.17232724 0.07641387
0000a0 4e fe fd 3c 38 bf 77 3d b5 e8 21 3e c1 ac 14 bd
       0.031005051 0.060485095 0.15811427 -0.036297563
0000b0 b3 d5 2e bc 65 7f d2 bd 92 66 01 be 85 df 9d bc
       -0.010671067 -0.10278205 -0.12636784 -0.019271621
0000c0 23 28 d8 3c 0f a6 b4 bd 8f d8 19 bc 8a 5a 90 bc
       0.026386326 -0.08820736 -0.0093900105 -0.017621297
0000d0 2f 0a 40 be 1f d1 dd bd d9 54 a6 bd b8 1f 61 be
       -0.18753885 -0.10830902 -0.08121652 -0.21984756
0000e0 85 10 71 3d 1c c4 f5 bd 14 8e c1 bc 2c ef 1c be
       0.058853645 -0.120002955 -0.023627318 -0.15325612
0000f0 27 af 20 3e b1 00 1c 3c 28 93 f5 3d 4b f7 e5 bd
       0.15691815 0.009521649 0.119909585 -0.11228808
000100 4d d2 2b be 67 9b 2c be b3 ba 12 3e 24 3b a6 3e
       -0.16779442 -0.16856156 0.14329033 0.32466996
000110 16 ca ae bc 66 3f 57 3e 4b f2 4b bd e3 84 eb 3c
       -0.021336596 0.21020278 -0.049791615 0.028749889
000120 37 4d c8 3d b3 a4 e3 bd 7e ec 85 3b c7 19 34 be
       0.097803526 -0.11115398 0.00408703 -0.17587958
000130 00 c6 a8 3d 77 78 0f be 94 3b 25 bd c2 a5 4a 3d
       0.082408905 -0.14010797 -0.04034002 0.049474485
000140 75 f3 71 3c f7 c6 8c bd 50 d3 1d be bc f2 9a bc
       0.014767517 -0.06873887 -0.1541264 -0.018914573
000150 f1 b7 36 be ed 95 ad 3c 7b 1b 43 3e 9e 59 ab 3d
       -0.17843606 0.021189654 0.19053452 0.083667025
000160 9f 22 1d be ca b9 13 3e da 83 dd bc 86 1b ba bc
       -0.15345238 0.14426342 -0.02704041 -0.022718202
000170 e2 b5 86 3e 67 ae 35 be 6e b3 c6 3c 6e f2 1e be
       0.2631064 -0.1774231 0.02425548 -0.15522167
000180 8f 6d ab bd 37 84 d3 bd 2d ab 35 3d 4f ea 6a bd
       -0.08370506 -0.10327952 0.0443527 -0.05735236
000190 53 10 2b bd f1 6a e7 3b 6c 75 d6 be c7 b0 b2 3d
       -0.041763615 0.007062309 -0.4188646 0.08725124
0001a0 43 1a b6 bd 45 7e 88 be c6 26 c1 bd 3d d0 5e 3e
       -0.08891728 -0.26658836 -0.094312236 0.21759124
0001b0 ec b4 5d bd bb c3 5e 3d 8f b0 e6 be 8f dd 83 be
       -0.05412762 0.054385882 -0.4505658 -0.25754973
0001c0 6d 89 67 3e 77 2f cb bc 9f 53 4c be fe 0f e2 3e
       0.22611018 -0.024802906 -0.19953774 0.44152826
0001d0 24 1b c3 be 3e 8e 6e 3e d7 82 5a be d1 1a 1a bd
       -0.38106644 0.23296449 -0.21338974 -0.03762323
0001e0 67 f3 b7 bd 1f bb 74 be 64 a8 2e be 08 7d 8e 3e
       -0.08981972 -0.23899506 -0.17056423 0.27829766
0001f0 08 23 92 3e 49 88 32 3c 56 c1 22 be 80 e9 8e 3e
       0.28542352 0.010896751 -0.15894064 0.2791252
000200 d9 b8 84 bd d6 48 cf bd 3a 33 8a bd e6 2b 7a bd
       -0.064805694 -0.10121314 -0.06748052 -0.06107702
000210 14 a6 98 be 39 05 0a bd 3d 73 1b bc 8a 9f 8a bd
       -0.29814208 -0.033696387 -0.009487924 -0.06768711
000220 2d 89 04 bd f8 9e 81 bc 61 1d e1 bd 9b eb 7e 3e
       -0.032357384 -0.015822873 -0.10991932 0.24894564
000230 35 48 0e bc a7 ba ac be 91 60 5f 3e 97 bb f0 3c
       -0.008684208 -0.33736154 0.21814181 0.029386325
000240 1f 90 4a be 0d 0c b5 3b 94 44 75 bc 09 67 10 be
       -0.1978154 0.005525118 -0.014969964 -0.14101805
000250 52 0e 47 3e 37 ee 1a be 0b ed bd bd 62 56 bd 3b
       0.19439057 -0.15129934 -0.09273728 0.00577812
000260 e1 8f 77 be 4e 9c e8 3d 6f bf a6 3d 17 f2 75 bd
       -0.24175979 0.11357938 0.08141982 -0.060045328
000270 41 a0 15 bd 3b ac 42 bc a8 44 b9 bd 93 2b 70 3e
       -0.036529783 -0.011881883 -0.09046298 0.23454122
000280 75 7f b8 3d d6 20 b3 bd e3 74 3a 3c 84 28 23 be
       0.090086855 -0.08746497 0.011380407 -0.15933424
000290 f8 0d 4e 3d cd 2a 14 3e 76 63 4a 3d 08 e9 70 3e
       0.05030629 0.14469452 0.04941126 0.23526394
0002a0 9c 2b b2 bd c7 9b 08 3e c6 58 8d bb 95 00 a2 3e
       -0.08699724 0.13340674 -0.004313561 0.3164107
0002b0 4d 02 c2 bd b1 1e 72 3d 95 1f 6e be 01 d1 87 bd
       -0.09473095 0.0591113 -0.23254235 -0.06631661
0002c0 70 07 73 be 57 d5 a5 3d db e3 bc 3d 7c 45 64 bb
       -0.23733306 0.08097332 0.092231475 -0.0034831455
0002d0 de 6f 98 3d 03 3a 9d be 04 a3 83 bd 52 02 76 3e
       0.07443212 -0.30708322 -0.06427577 0.24024323
0002e0 2f 8f 68 3d d0 a4 fa 3c a7 8d 42 bd d8 7d 7a bd
       0.056777176 0.030596167 -0.04749837 -0.06115517
0002f0 80 4e 8a be e2 8a b8 bd 16 2a 0a 3e 2e 47 3a 3e
       -0.27013016 -0.09010865 0.13492617 0.18191215
000300 22 ad bf 3d 43 8c 5b 3c c6 c2 54 bc 24 45 ed 3d
       0.09359194 0.01340014 -0.012985891 0.11585453
000310 71 48 f9 bd d3 94 9a bd bf cb 84 3b d0 e1 90 bd
       -0.1217202 -0.07547917 0.0040526087 -0.0707432
000320 19 f8 5f 3d 7c 14 17 be 9f 2d a6 bd 17 56 3a 3a
       0.054679964 -0.14753908 -0.0811417 0.00071081653
000330 0a 5e 54 be 1c 3c 9c 3c 82 cb 3c 3d f1 9a 04 bd
       -0.20738998 0.019071631 0.046092518 -0.032374326
000340 ea aa 33 3e 7b 49 80 be 63 fe d2 3e 82 22 23 be
       0.17545667 -0.2505606 0.41209707 -0.15931132
000350 d3 56 ff bd 6b 09 c1 be eb 32 34 3e b7 24 35 3e
       -0.12467732 -0.37702498 0.17597549 0.17689787
000360 4d 67 37 bc ff b9 cb bc 96 45 77 be 5d b5 37 3e
       -0.011194062 -0.024868963 -0.24147639 0.17940278
000370 ab 2d db bc 84 86 90 bd d8 be 5a 3e af bd 3f 3d
       -0.026755175 -0.07056907 0.21361864 0.046811756
000380 d0 ac 71 3c 5d 37 ae bb 2d d0 9b bd b3 43 41 be
       0.014750674 -0.0053166584 -0.07608066 -0.18873481
000390 2f 03 01 be d9 d4 ad 3b bf 8d 18 be e0 f4 07 3c
       -0.1259887 0.0053049144 -0.14897822 0.008298129
0003a0 88 51 47 3e 11 c6 09 3c 64 50 9a be 7d 83 28 3e
       0.19464695 0.008409039 -0.30139458 0.16456409
0003b0 c0 cd 7f bd 6d 60 3d be 57 7b 62 be a4 f6 90 bd
       -0.062452078 -0.18493815 -0.22117363 -0.07078293
0003c0 d3 0d 28 bc 3e cd 40 3d a5 8c 7c 3e 4f de c1 bc
       -0.010257202 0.047070734 0.24663027 -0.023665575
0003d0 4f 46 57 be 35 18 b9 3d d4 00 6c bd 90 05 93 bd
       -0.21022914 0.0903782 -0.057617977 -0.07178795
0003e0 35 3a 92 3d 8d 1b ef 3d 38 9b 1e bc 65 61 c4 3d
       0.07140008 0.11675177 -0.009680562 0.09588889
0003f0 02 a4 39 be 77 93 8a bd cf 60 a2 3c c5 5e 95 3e
       -0.1812897 -0.06766408 0.019821553 0.29173866

out_embed.weight f4 [259, 25]
000000 1b 1b 2a 3d 51 62 d2 3d a4 8b 82 bd 93 5d ba 3d
       0.041529756 0.102726586 -0.063742906 0.09099879
000010 eb 73 24 3d 48 a7 09 3d cb a8 62 bc db 1b 2e 3c
       0.04014961 0.033606797 -0.013834189 0.010626758
000020 6b e7 54 3d 5a 80 13 be 12 7e f4 3d 4d 83 d7 bc
       0.05197851 -0.14404431 0.119381085 -0.026307726
000030 e9 b7 35 3d b3 02 34 bf b2 9b b7 bd 13 bc bf 3c
       0.044364844 -0.7031662 -0.089652434 0.02340511
000040 aa d4 aa 3d 60 a8 96 bf 97 db 84 3d 8c ef 00 3e
       0.08341344 -1.1770134 0.06487196 0.1259138
000050 5e 15 3e 3d 0c 43 50 3d de 00 a8 3d 46 18 09 bd
       0.046407096 0.05084519 0.082032904 -0.033470415
000060 30 d0 82 3d d0 c0 e7 3c a4 30 60 be d7 c8 c5 bd
       0.06387365 0.028290182 -0.21893555 -0.09657448
000070 8e 5a 0b 3d 0e 25 7e bc 65 b1 96 bd 9f 30 1e 3e
       0.034021907 -0.015511764 -0.07358054 0.15448235
000080 78 30 a5 bb e9 ac 9e bd d5 8d 2e be fd 8c 3b be
       -0.0050411783 -0.07747824 -0.17046292 -0.18315502
000090 2b 23 86 bd c1 70 b5 be c0 9a 38 bf 34 2d d7 3d
       -0.065496765 -0.35437587 -0.7211113 0.10506669
0000a0 ca 0b 93 3d 2d 45 96 3d d7 3d 96 3f 93 02 95 bc
       0.07179983 0.07337413 1.1737622 -0.018189704
0000b0 b4 e1 ce 3c c9 b6 58 3d 32 07 22 3d 5b f4 1c be
       0.025254108 0.052908693 0.039557643 -0.15327589
0000c0 1f 34 7c 3e e3 98 03 be d9 33 de 3d 77 b7 fa bd
       0.24629258 -0.1285129 0.10849733 -0.122420244
0000d0 38 42 52 bd ca 7e c7 3c 47 87 39 be cc 1f 30 be
       -0.051332682 0.02435245 -0.1811801 -0.1719963
0000e0 3d b8 e1 3d dc 31 a4 3d 50 c9 b3 3d b6 16 6a be
       0.11021469 0.080173224 0.08778632 -0.22860226
0000f0 fb e3 35 be 4a 3b 2f be cc ef 13 be 6a 3a 1e bf
       -0.17762749 -0.1711246 -0.14446944 -0.6180788
000100 59 ef 0a bd 8f 2a 25 3e ab 95 4b 3e 33 51 a9 3f
       -0.033919666 0.16129516 0.19881313 1.3227905
000110 b0 73 17 be e7 b0 08 3e f2 bb 98 bc c7 18 6e bd
       -0.14790225 0.13348733 -0.018644307 -0.0581291
000120 c1 82 5a 3d 65 c3 f2 3d b2 83 00 be 26 8a 88 bc
       0.053347353 0.11853675 -0.12550238 -0.016667437
000130 98 ac 99 be 37 ba a8 bd de d1 6f 3d 03 a9 75 be
       -0.3001449 -0.08238643 0.058549754 -0.23990254
000140 78 68 55 3d de 5d d1 bc c0 04 9f 3d 41 50 d6 3d
       0.052101582 -0.025557455 0.07764578 0.10464526
000150 68 41 b7 be ff 18 f4 bd a3 85 c8 3d d5 ca d3 be
       -0.35792089 -0.1191883 0.09791114 -0.41365686
000160 b8 fd 21 bf 30 83 20 3d 7c 08 de 3d dd f9 81 3d
       -0.6327777 0.03918761 0.10841462 0.06346486
000170 35 5e 9b 3f 0f 45 86 be 00 e5 25 3a 1e 19 88 3e
       1.2138125 -0.26224563 0.0006328374 0.26581663
000180 f2 0c 3c 3d 51 01 6e be 34 a4 86 3e 89 d6 99 3d
       0.045910783 -0.2324269 0.26297152 0.075116225
000190 1e 31 7c be 95 5f 93 be 6d a2 d6 3d 4c f8 7b be
       -0.24628112 -0.2878386 0.10480199 -0.24606436
0001a0 56 bf f9 bd 74 e5 ce 3d 5f 97 4e 3d 49 f6 58 be
       -0.121946976 0.101023585 0.050437327 -0.211877
0001b0 85 18 cf 3d 3b 73 7b 3d 22 39 ec 3e 7c b5 79 3e
       0.101120986 0.06138919 0.4613734 0.24385637
0001c0 b7 48 95 be 95 16 08 bf 73 51 b3 3e ac 99 02 bf
       -0.2915704 -0.5315946 0.35023078 -0.51015735
0001d0 b9 30 fc 3e e3 20 a0 3f c4 d1 c0 3d 99 42 01 be
       0.49255922 1.2510036 0.094150096 -0.12623061
0001e0 61 23 35 3e 0b 8d 2d 3e 01 88 6c 3e cc 2f 97 bc
       0.17689277 0.16948335 0.23098756 -0.018455409
0001f0 b4 15 0a bf 4f 42 c5 3d 41 30 bf be 42 55 c9 3e
       -0.53939366 0.09631788 -0.37341502 0.3932286
000200 9e fa 18 3e 8a 88 69 be f8 d0 86 3d 82 de b5 bd
       0.14939353 -0.22805992 0.065828264 -0.088803306
000210 48 f2 94 be b9 0d 68 3c 4d f9 1e be d6 41 6f be
       -0.29091096 0.014163428 -0.15524788 -0.23364958
000220 a1 fc 7f be 57 b7 9b be 17 b8 92 be a8 51 76 3e
       -0.24998714 -0.30413315 -0.28656074 0.24054587
000230 69 9e 0e 3e d0 51 4b be f1 93 77 3f d3 cf a3 3d
       0.13927616 -0.19855428 0.96710116 0.07998624
000240 e9 4f 84 bd 33 51 05 3e c9 27 94 3d a6 c1 71 be
       -0.06460554 0.13019256 0.07234151 -0.23609027
000250 50 dd 98 3e a2 39 12 be be 5a c4 bd 2a 7d 30 be
       0.29856348 -0.14279798 -0.0958762 -0.17235246
000260 f2 cc 0b be 5c 1b 72 3e fb d1 12 be 24 16 b6 bd
       -0.13652399 0.2364325 -0.14337914 -0.08890942
000270 1e 54 ae 3c 08 79 67 3c 7e 6d 66 bc a3 73 c8 3d
       0.021280345 0.014127977 -0.014064191 0.09787681
000280 db 27 cb bd 2e 80 07 be 57 88 6a be dc 74 e0 be
       -0.09919711 -0.1323249 -0.22903572 -0.43839157
000290 94 fe 45 3e 76 6e 97 3e ef a4 04 3e 09 71 8f 3f
       0.19335395 0.29576463 0.12953542 1.120637
0002a0 a5 f3 11 be 03 6e 1a 3e e0 66 08 bd c2 d9 bd 3e
       -0.142531 0.15081029 -0.033301234 0.370802
0002b0 92 8a 54 be 37 d1 1e 3e a9 81 b6 be 42 4a b5 bc
       -0.20755985 0.15509497 -0.35645798 -0.022130135
0002c0 e9 26 70 be a0 0a 0d 3e 60 b4 06 3e 97 eb 34 bd
       -0.23452343 0.13773584 0.13154745 -0.04416999
0002d0 ee 77 fe 3d a1 ea 7b be 83 f9 a2 bd c0 f3 38 3e
       0.124252185 -0.24601223 -0.07957747 0.18061733
0002e0 33 2c 83 3d 87 75 4b be a5 b7 ad bd c9 3a 98 bd
       0.06404915 -0.19869052 -0.08482293 -0.074330874
0002f0 25 38 f8 be 03 e5 1b 3b 62 3e 43 3e 76 f4 71 3d
       -0.48480335 0.0023787625 0.19066766 0.059071027
000300 f8 ed 74 3f df 29 93 3c 78 24 8b 3d ab 70 06 3e
       0.9567561 0.017964302 0.06794065 0.13128917
000310 71 05 a1 bd 79 0c 45 bd 5d 69 49 38 36 a8 ae bd
       -0.07862366 -0.048107598 4.802026e-05 -0.085281774
000320 c0 ba 76 be 98 b3 62 be e5 ff a7 bc a5 20 6f bd
       -0.24094677 -0.22138822 -0.020507762 -0.05838074
000330 93 55 aa bd 4e 81 83 bd b9 25 0d 3e 0a e2 47 be
       -0.08317103 -0.06421147 0.13783921 -0.19519821
000340 01 c9 59 3e 15 0b de bd 41 7c 74 bc 73 02 2b be
       0.21268083 -0.108419575 -0.014922203 -0.16700153
000350 e5 0b 06 be 92 2c ee be 56 34 25 3e 00 cd 1e 3e
       -0.13090475 -0.4651838 0.16133246 0.15507889
000360 93 92 06 bd 67 d5 1f 3f 07 ce a4 bd 47 5f 8c 3e
       -0.032854628 0.62435 -0.08047109 0.2741644
000370 f9 15 2e bd 64 08 45 3d e2 bb 5d 3d f6 21 2e 3e
       -0.042501424 0.048103705 0.054134257 0.17005143
000380 f1 d3 47 3e 9d 8e 7c bd 30 8b 79 3d 73 46 49 3d
       0.19514443 -0.061659444 0.060923755 0.04913945
000390 30 5d 1c be 82 39 13 3e e4 b1 b0 3d e0 25 bb 3d
       -0.15269923 0.14377406 0.0862768 0.091380835
0003a0 e3 2c 3f 3c c2 7c 0e 3e 61 55 94 be 18 6a ee bd
       0.011668417 0.13914779 -0.2897139 -0.116413295
0003b0 06 5d b7 bd cf 00 02 be d0 99 f5 bd b4 f6 45 3e
       -0.0895329 -0.12695621 -0.11992228 0.19332391
0003c0 c2 1f 73 3d 6d d4 2a 3e 91 4f 4b 3f 7c fc fc bd
       0.05935646 0.16682597 0.79418284 -0.12352845
0003d0 23 c5 cc bc 2d 5b 00 be 77 66 37 be bf 06 03 be
       -0.024996346 -0.12534781 -0.17910181 -0.12795542
0003e0 88 a4 0e 3d c3 dd cf bd f1 8d 29 3c 56 90 02 be
       0.034824878 -0.101497196 0.010348783 -0.12750372
0003f0 19 13 49 bd 20 97 de 3d e5 cb 26 be 1a 74 87 3e
       -0.04909048 0.108686686 -0.16288717 0.26455766
