models/skipgram_radical_epoch6_2023-10-15.pth (torch, 53690 bytes, 2 tensors)

in_embed.weight f4 [259, 25]
0	0x3cef4dcf	0.029211907
1	0xbbfbd1f5	-0.007684941
2	0xbd1f4d06	-0.038891815
3	0x3d0abf2d	0.033873726
4	0x3dbf4d2a	0.0934089
5	0xbc258df4	-0.010104645
6	0xbc406dac	-0.011744898
7	0x3da4f4c8	0.08054501
8	0xbdb66b2e	-0.08907162
9	0xbb287614	-0.0025705146
10	0x3dbbbb93	0.09166636
11	0x3dd1c64b	0.102428995
12	0xbe6981a9	-0.22803368
13	0x3f9d6d31	1.2298948
14	0x3ba883a3	0.0051426454
15	0xbd21cade	-0.03950011
16	0x3d27ba38	0.040949076
17	0x3f52bd71	0.82320315
18	0x3be2667e	0.0069091907
19	0xbd236613	-0.039892267
20	0x3ddd6a5e	0.108113036
21	0x3d5aaf0c	0.053389594
22	0x3b6cfe8b	0.0036162462
23	0xbc9e280e	-0.019306209
24	0xbbffbfe2	-0.0078048566
25	0x3cdb18b0	0.02674517
26	0xbe233b02	-0.15940478
27	0x3d7d4fa0	0.061843514
28	0x3ccb5d33	0.024824714
29	0x3dbff8a6	0.09373598
30	0x3e345060	0.17608786
31	0xbdcf9793	-0.10136332
32	0xbda6ddcf	-0.081477754
33	0x3bc0d7dc	0.0058851074
34	0x3daba94d	0.08381901
35	0xbd432c52	-0.04764969
36	0xbd8690ff	-0.065706246
37	0x3def5874	0.11686793
38	0x3dca6194	0.09881893
39	0xbce2d087	-0.027687324
40	0xbccff825	-0.02538688
41	0x3dae78e2	0.0851915
42	0xbe4baaf4	-0.19889432
43	0x3d7ca0ee	0.061676912
44	0x3c5a703e	0.013332425
45	0x3db91204	0.09036639
46	0xbdd3568f	-0.10319244
47	0x3d6ec44e	0.05829268
48	0x3d3083fd	0.043094624
49	0x3cb7a2a6	0.022416424
50	0xbdb09a60	-0.08623195
51	0xbc421898	-0.011846684
52	0x3dc0b013	0.094085835
53	0xbdd59ab2	-0.104298964
54	0x3e9e3070	0.3089633
55	0xbd18d297	-0.03731021
56	0xbe324cf2	-0.17412165
57	0xbdaf7cc0	-0.08568716
58	0x3b8364c5	0.0040098154
59	0xbd21e093	-0.03952081
60	0x3def3321	0.11679674
61	0xbe1cbacd	-0.15305634
62	0xbdc14f41	-0.094389446
63	0x3d6a1581	0.057149414
64	0xbc732db6	-0.014842441
65	0x3d4b0c84	0.049572483
66	0xbd22696d	-0.039651323
67	0xbe95b411	-0.29238942
68	0xbe1f63fb	-0.15565483
69	0xbc5128de	-0.012766091
70	0xbc7ae4f8	-0.0153133795
71	0xbdb2815d	-0.0871608
72	0x3d1042e1	0.03522003
73	0x3b1e8ab6	0.0024191565
74	0xbe673570	-0.22578979
75	0x3c80c94b	0.015720984
76	0x3cfbdad6	0.030743998
77	0x3d577bb8	0.05260822
78	0x3cbea80b	0.023273489
79	0xbe2c0775	-0.1679972
80	0xbdb6e83e	-0.089310154
81	0xbd257526	-0.040394925
82	0x3d275f9d	0.04086267
83	0xbe00908a	-0.12555137
84	0x3e43ad11	0.19108988
85	0xbdde262e	-0.10847126
86	0xbe04e5d3	-0.12978296
87	0x3dae8a66	0.08522491
88	0x3d096785	0.03354599
89	0xbd21afae	-0.03947418
90	0x3e59629b	0.21229021
91	0x3e909555	0.2823893
92	0xbe824356	-0.25441998
93	0xb8140438	-3.528988e-05
94	0x3dcda7fa	0.100418046
95	0x3e5bb35f	0.21455143
96	0xbba31db8	-0.004977908
97	0x3e3d5155	0.18488057
98	0xbd78f282	-0.06077815
99	0xbc86ad36	-0.016440015
100	0xbe638fc4	-0.22222811
101	0x3ec11bec	0.37716615
102	0x3df7398f	0.12071525
103	0x3ec8f9a6	0.39252967
104	0x3d0c8ac4	0.034312025
105	0x3e810b64	0.25204003
106	0x3d82e232	0.063907996
107	0x3e9c6e17	0.30552742
108	0xbd63b480	-0.05559206
109	0x3d9abfd6	0.07556121
110	0x3c5c22a8	0.013435997
111	0x3ca47267	0.020074083
112	0xbe64df1d	-0.22350736
113	0xbd77e819	-0.06052408
114	0x3d4ce207	0.050020244
115	0x3d9f2296	0.077702686
116	0xbeb28c5b	-0.34872708
117	0xbe879028	-0.2647717
118	0x3ee267db	0.4421986
119	0x3d0a9fbe	0.03384375
120	0x3dfa08ec	0.12208733
121	0xbeeb14dc	-0.45914352
122	0xbdda7dc7	-0.106685214
123	0xbe003ef1	-0.1252401
124	0x3e356111	0.17712809
125	0x3d9f6bbf	0.07784223
126	0x3db81338	0.08988041
127	0xbe1de969	-0.1542107
128	0xbe388746	-0.18020353
129	0xbe6c768d	-0.23092099
130	0x3e02f7a5	0.12789781
131	0xbdc7a373	-0.09747972
132	0xbe880db1	-0.26572946
133	0xbe5d7c42	-0.21629432
134	0x3e1b89a3	0.15189223
135	0xbb6fb08f	-0.0036573743
136	0x3e94a29d	0.29030314
137	0x3e1c6d8f	0.15276168
138	0x3bf18670	0.0073707625
139	0xbdf44244	-0.11926702
140	0x3d17406e	0.03692668
141	0xbe4370cb	-0.19085996
142	0xbe8213e5	-0.25405803
143	0xbd124958	-0.035714477
144	0xbe11e967	-0.14249192
145	0x3e862d5f	0.2620649
146	0x3d846442	0.06464435
147	0xbc53f493	-0.012936729
148	0x3daa6e0c	0.08321771
149	0x3e9c7600	0.30558777
150	0x3e243dc9	0.16039194
151	0xbe2da1a3	-0.16956191
152	0x3e028bee	0.12748691
153	0x3de1d747	0.11027389
154	0xbc932fd9	-0.017967151
155	0xbc6f84af	-0.014619037
156	0x3e84121e	0.25795072
157	0x3db1735b	0.086645804
158	0x3cc79d66	0.024367046
159	0xbd0dda5e	-0.03463208
160	0x3e53845f	0.20655964
161	0xbdf07f39	-0.11743016
162	0x3e499d9e	0.19689032
163	0x3d968f88	0.07351595
164	0x3c9ecf95	0.019386092
165	0x3e08fe93	0.13378362
166	0xbe124a52	-0.14286163
167	0xbe4345ed	-0.19069643
168	0x3dd1438b	0.10217961
169	0xbe2dabcf	-0.16960071
170	0x3dcf08de	0.10109113
171	0x3df4bfc7	0.11950641
172	0xbe0f21ee	-0.13977787
173	0x3d644bd1	0.055736367
174	0xbdb76895	-0.08955494
175	0xbe08f27e	-0.13373753
176	0x3db26a0b	0.08711632
177	0xbd21d296	-0.03950747
178	0xbcd1f8ff	-0.025631426
179	0xbe8631c8	-0.26209855
180	0xbe052f8d	-0.1300642
181	0x3e17302d	0.14764471
182	0xbe76ebfe	-0.24113461
183	0x3dce624d	0.10077343
184	0x3b83ce29	0.004022379
185	0x3db5e0ac	0.088807434
186	0x3e20b1e1	0.15692855
187	0x3e1b7c29	0.15184082
188	0x3e3eb2a5	0.18622835
189	0x3de8a49a	0.1135952
190	0x3c83a7b0	0.01607117
191	0xbdce1591	-0.10062707
192	0xbdce4399	-0.10071487
193	0x3dd69aad	0.10478721
194	0xbc34d464	-0.011036966
195	0xbe767697	-0.24068676
196	0x3d1e7577	0.038686242
197	0xbd966d41	-0.07345057
198	0x3d590b56	0.052989326
199	0xbd412a4f	-0.04715949
200	0xbe310205	-0.17285927
201	0x3d9d44a1	0.076791056
202	0xbdc41ac5	-0.095754184
203	0x3df01810	0.117233396
204	0x3e5854fc	0.21126169
205	0x3cbc35cb	0.02297487
206	0x3e1efb32	0.15525511
207	0xbe7f5838	-0.24935997
208	0x3e74f868	0.23922884
209	0x3daf4cc7	0.08559566
210	0x3b29af04	0.002589167
211	0xbe483806	-0.19552621
212	0x3e53dfbc	0.20690817
213	0x3e873c88	0.2641337
214	0xbd190f19	-0.037367914
215	0x3d237ab4	0.03991194
216	0xbd5db4f3	-0.054127645
217	0xbd526a23	-0.05137075
218	0xbe172392	-0.14759663
219	0x3ea6fb0c	0.3261341
220	0x3c79e590	0.015252486
221	0x3e0773dc	0.1322779
222	0xbd881ca9	-0.066460915
223	0x3d016014	0.031585768
224	0x3d92d764	0.07169989
225	0xbe4da319	-0.20081748
226	0xbcd83ac8	-0.026395217
227	0xbccb3a67	-0.024808122
228	0xbe5d4725	-0.2160917
229	0x3e35b0d3	0.17743234
230	0xba506835	-0.00079500984
231	0xbd7fe351	-0.062472645
232	0x3d7b708a	0.061386622
233	0x3e512630	0.20424724
234	0xbd68e791	-0.056861464
235	0x3d4a698b	0.04941706
236	0x3bd3baba	0.0064614685
237	0x3d5b8bb5	0.053600032
238	0x3da83de7	0.08214932
239	0xbe0bdf50	-0.13659406
240	0xbe356f14	-0.17718154
241	0x3e5b2351	0.21400191
242	0xbe5849a4	-0.21121842
243	0xbaa3b035	-0.0012488427
244	0x3e0d5010	0.13800073
245	0xbca7307c	-0.020408861
246	0xbe34e4c9	-0.176654
247	0x3d856374	0.0651311
248	0x3c817f14	0.015807666
249	0x3e761fbc	0.24035543
250	0xbd43563a	-0.047689654
251	0x3dadfa83	0.08495047
252	0x3dc731aa	0.097262695
253	0xbe59fbf6	-0.21287522
254	0xbe21e032	-0.1580818
255	0x3d0142fd	0.031558026

out_embed.weight f4 [259, 25]
0	0xbe40d20e	-0.1883013
1	0xbd66a60e	-0.056310706
2	0xbbd245f4	-0.0064170305
3	0x3d88978e	0.06669532
4	0x3e041267	0.12897645
5	0x3d355f4a	0.044280328
6	0xbd68220f	-0.056673106
7	0xbdc0c7db	-0.094131194
8	0x3e3750ed	0.17901964
9	0xbaeb6cdb	-0.0017961519
10	0x3d8d0f1a	0.06887646
11	0xbc7cbd0b	-0.015425931
12	0x3bbc44ec	0.005745521
13	0x3f543e13	0.8290722
14	0xbd8c8132	-0.068605796
15	0xbbd32a27	-0.006444234
16	0x3cc5b0cd	0.024132157
17	0x3f9a3eca	1.2050412
18	0x3d96a935	0.073564924
19	0x3d5d43b9	0.054019663
20	0xbc68ee77	-0.014217011
21	0x3e0032d4	0.1251939
22	0x3d4c552b	0.04988591
23	0x3c89262d	0.016741836
24	0xbc9c472f	-0.019076912
25	0x3dc479dc	0.09593555
26	0x3c88991f	0.016674576
27	0x3e32f795	0.17477258
28	0xbc8a9109	-0.016914861
29	0x3d14f277	0.036364045
30	0x3e5f0918	0.21780813
31	0xbd88c593	-0.06678309
32	0x3dd18436	0.10230295
33	0x3e1eed9c	0.15520328
34	0x3c8e54e4	0.017374463
35	0xbdae5cbb	-0.08513781
36	0xbc34b449	-0.011029311
37	0x3ed02b48	0.4065802
38	0x3f4f265f	0.80917925
39	0xbd4ff1e0	-0.05076778
40	0x3be873e0	0.0070938915
41	0x3b036567	0.0020049454
42	0xbfc76ec1	-1.5580674
43	0x3dca8783	0.09889128
44	0x3d1d8176	0.03845354
45	0x3c55e1ce	0.013054324
46	0xbd3f6ad6	-0.046732746
47	0x3d283df5	0.04107471
48	0xbca293eb	-0.019845923
49	0x3dc78ac6	0.09743266
50	0xbe12aa5d	-0.14322801
51	0x3e2c3202	0.16815951
52	0x3e398e6a	0.18120733
53	0x3c99df96	0.018783372
54	0x3ddde2fe	0.10834311
55	0x3e21107a	0.15728942
56	0xbcf4e937	-0.029896362
57	0x3dcf1243	0.10110905
58	0x3e8d7fe7	0.27636644
59	0x3d59710d	0.05308633
60	0xbd1a33d7	-0.037647095
61	0xbd99a183	-0.07501509
62	0x3e83ff17	0.25780556
63	0x3f22488b	0.6339194
64	0xbd681a73	-0.05666585
65	0x3decfcf4	0.115716845
66	0xbe274fc5	-0.16339023
67	0xbfc51a5f	-1.5398673
68	0xbb9005f3	-0.0043952405
69	0xbb36baf2	-0.0027882424
70	0xbd7250cf	-0.059159096
71	0xbe150182	-0.14551356
72	0x3e023f1f	0.12719391
73	0xbceddfdf	-0.029037414
74	0xbe05f321	-0.13081028
75	0xbe397519	-0.18111075
76	0x3dc8c8c1	0.09803916
77	0x3dbd3231	0.09238089
78	0xbda8fb40	-0.08251047
79	0xbe1af8f9	-0.15134038
80	0x3e0c15db	0.13680212
81	0xbd11f85b	-0.03563724
82	0x3dc078ee	0.093980655
83	0x3ea40a20	0.32038975
84	0xbdadfdd9	-0.08495683
85	0x3dd78720	0.1052382
86	0xbe155ad8	-0.14585435
87	0x3f0e27cd	0.5552948
88	0x3f25e42c	0.6480129
89	0xbd1a5499	-0.037678335
90	0x3c988b0a	0.018620986
91	0xbc33097c	-0.010927554
92	0xbfbe6016	-1.4873073
93	0x3e2162ed	0.15760393
94	0x3e64fa7d	0.22361179
95	0x3c6c4ef0	0.014423117
96	0xbe4a905b	-0.1978163
97	0x3d8ee22e	0.06976734
98	0xbc5b3d11	-0.013381259
99	0x3e3eb9b3	0.18625526
100	0x3e91df98	0.284909
101	0xbebe0119	-0.37110212
102	0xbe01233e	-0.126111
103	0xbefadb2f	-0.4899535
104	0xbb348dc6	-0.0027550324
105	0xbea9c2a5	-0.33156314
106	0xbb092a4c	-0.0020929752
107	0xbd999f38	-0.07501072
108	0x3dd4919e	0.10379337
109	0xbd069b83	-0.03286315
110	0xbdc4d9cd	-0.09611855
111	0xbdf271ac	-0.118380874
112	0x3f339e2f	0.70163244
113	0x3ef28b1d	0.4737176
114	0xbb15597e	-0.0022788937
115	0xbd09412a	-0.03350941
116	0x3e575481	0.2102833
117	0xbfb4d5c3	-1.4127735
118	0xbee62458	-0.44949603
119	0xbd90ccd9	-0.070703216
120	0xbe97a72f	-0.29619738
121	0x3ee5fc69	0.44919136
122	0x3dcf8649	0.10133035
123	0x3e125cf2	0.14293268
124	0xbe2600ca	-0.16211239
125	0x3b833bc0	0.0040049255
126	0x3e14ba9c	0.14524311
127	0xbdcb1c17	-0.09917467
128	0xbd7560ef	-0.059906896
129	0xbe8a4e01	-0.27012637
130	0x3e7c8307	0.24659358
131	0xbd638113	-0.055543017
132	0xbe1ed853	-0.15512209
133	0x3d8a52de	0.06754087
134	0x3e067c9c	0.13133472
135	0xbd0ad683	-0.03389598
136	0x3e5426a8	0.20717871
137	0x3ee24e50	0.44200373
138	0x3e886615	0.26640382
139	0xbe1e3a42	-0.15451911
140	0xba9d2105	-0.001198799
141	0xbe9a33f7	-0.3011777
142	0xbf97dee5	-1.1864897
143	0xbcc042d4	-0.023469366
144	0xbe0abef4	-0.13549405
145	0x3df3f1fb	0.119113885
146	0x3ad1a734	0.0015995265
147	0x3c88e56a	0.016710956
148	0x3df43805	0.119247474
149	0x3e9b1c0c	0.30294836
150	0x3d9ccf46	0.07656722
151	0xbe0f9f77	-0.14025675
152	0x3e13e0a1	0.14441158
153	0x3df9d9a5	0.121997155
154	0xbda94bbc	-0.08266398
155	0x3e13be87	0.14428149
156	0x3e8168c5	0.25275245
157	0x3e1196a6	0.14217624
158	0x3e5ae8e4	0.21377903
159	0xbb6ac0a1	-0.0035820382
160	0x3e0b2598	0.1358856
161	0xbde7daf5	-0.113210596
162	0x3edf971a	0.4366997
163	0x3eca471b	0.39507374
164	0x3cf4f160	0.029900253
165	0x3df3bf6c	0.11901745
166	0xbe5083c2	-0.20362762
167	0xbf95cd20	-1.1703224
168	0x3e0aa3b3	0.13539009
169	0xbe05347c	-0.13008302
170	0x3c6f2491	0.01459612
171	0x3db80788	0.089858115
172	0xbe209f66	-0.15685806
173	0x3b6d6e65	0.003622913
174	0xbdadcd2f	-0.08486401
175	0xbd458071	-0.048218194
176	0x3e41cf5b	0.18926756
177	0x3c9c6ee8	0.019095853
178	0x3d04dc4b	0.03243665
179	0xbe8b622d	-0.2722334
180	0xbdb92e6e	-0.09042059
181	0x3de84924	0.113420755
182	0xbbe23e8d	-0.0069044293
183	0x3cca6716	0.024707358
184	0x3d7817fb	0.060569745
185	0xbcde60c4	-0.02714575
186	0x3e2a1423	0.16609244
187	0x3e9c9f66	0.3059036
188	0x3f002506	0.50056493
189	0x3e0c5fe5	0.13708456
190	0x3d7e872a	0.06214062
191	0xbe06a9cb	-0.13150708
192	0xbf8dc004	-1.1074224
193	0x3d81395d	0.06309769
194	0xbb766198	-0.0037594792
195	0xbe99f96b	-0.30073103
196	0xbd52b493	-0.05144174
197	0xbe1bb257	-0.1520475
198	0x3d088dfe	0.03333854
199	0xbbefad87	-0.0073143872
200	0x3c7f9570	0.0155995935
201	0x3e854805	0.2603151
202	0x3e661fcb	0.22473066
203	0x3e918872	0.28424412
204	0x3daa07df	0.083022825
205	0xbd429399	-0.04750404
206	0xbd7e2bf6	-0.062053643
207	0xbcc1a6cf	-0.02363911
208	0x3df9b250	0.121922135
209	0x3e3344fc	0.17506784
210	0x3e1e1391	0.15437151
211	0xbd59960c	-0.05312161
212	0x3e8ac44a	0.27102882
213	0x3ee439cb	0.44575343
214	0xbe1354ed	-0.14387865
215	0x3e1f93fd	0.15583797
216	0x3d85d8b7	0.06535476
217	0xbf44d41d	-0.7688616
218	0xbc7593f4	-0.014988888
219	0x3e30bb6b	0.17258994
220	0xbcc611d1	-0.024178417
221	0x3dfea835	0.12434427
222	0xbe131f87	-0.14367495
223	0x3c153346	0.009106463
224	0x3dcfd831	0.10148657
225	0xbdcf2a8b	-0.10115536
226	0x3d3cdc5f	0.0461086
227	0x3d57ad39	0.052655432
228	0x3d079342	0.03309942
229	0xbd2ad3c4	-0.04170586
230	0x3d89783f	0.06712388
231	0xbdab0f25	-0.08352498
232	0x3e08d560	0.13362646
233	0x3d15c3a3	0.036563527
234	0x3e8a481f	0.2700815
235	0xbe98a3fc	-0.2981261
236	0xbd670592	-0.056401797
237	0x3e096ed5	0.13421185
238	0x3e440a06	0.19144449
239	0xbe0d6329	-0.13807358
240	0x3dac9f14	0.08428779
241	0x3e81673d	0.25274077
242	0xbf6dd6a7	-0.9290566
243	0xbb8c4e99	-0.0042818305
244	0x3d731fdc	0.059356555
245	0x3d2a6add	0.04160582
246	0xbd97a70d	-0.07404909
247	0x3e57059f	0.20998238
248	0x3d1c9708	0.038229972
249	0x3db10a67	0.08644562
250	0xbdaa1e62	-0.08306576
251	0x3e2f82e5	0.17139776
252	0x3e0c3918	0.13693655
253	0xbe5805a3	-0.210959
254	0xbe45be07	-0.19310771
255	0x3de8c857	0.11366337
