models/skipgram_pinyin.pth (torch, 245971 bytes, 2 tensors)

in_embed.weight f4 [1223, 25]
00000000: 24db 42bc f551 e73d 1d5a b13d ad79 0e3d
00000010: 4280 863d bb14 dcbd e4d0 39be a2db 133d
00000020: ea77 d9be 43db 3d3e 1d8f b83d c5bc 443e
00000030: f5f7 f73a e58c 26be 2947 afbd 1d11 c8bd
00000040: 386a 2b3e da6b 8d3e 74d6 e83d ca30 943e
00000050: 8625 d2bf 319c 933c 4143 fd3d 02c5 a63d
00000060: e485 6dbe 54ca 863d e7c3 53bd 4805 91be
00000070: e4d0 4b3e fc22 f13e 7cdb 11be 600d debd
00000080: cc13 583e 4b44 97be 7558 8e3d 4428 7e3e
00000090: d067 94bd ae50 abbe e831 a63d a12b cd3e
000000a0: 5edf b23d 5c73 1fbe f80f 873e 6e7b 1b3e
000000b0: 9c3d 103e e05a 453e f9b1 4f3e a22c 113e
000000c0: ba0d 3a3e 998c bb3d ad6b 81bd 6fa4 153e
000000d0: 516b 153d 8baf 113e 10fe 2dbe 5ebc 0c3d
000000e0: 2aef 033d 9e60 b73c 7d33 a2be 46a3 a43c
000000f0: 83b9 363c 2070 40bd a59e b5bc 8e51 4dbe
00000100: e4d5 f23d f182 eb3d e420 503d 980e 083e
00000110: dc5f 8ebd cdac 47be b97a 2a3d 66b2 70be
00000120: b962 353e 9005 4bbd 352b 44bd 1ad1 fcbc
00000130: 1752 543f d2d3 b13e 0d35 1b3d 79e6 a2be
00000140: e499 fdbe dc48 7bbe 495e d93e 9c8b d6be
00000150: ee3a 1ebf b9c1 253e 8e1e 8d3c 6d11 a7be
00000160: b61c cdbe aab7 413e 6502 48bf 0ba8 4fbe
00000170: c106 debe b559 893d 9f61 e33e e945 acbf
00000180: c0a4 67be b072 c43c 3d4e e6be d3fc 8dbe
00000190: 1e0b aebe c53a ccbc ff7e ec3d 0720 033e
000001a0: 8311 d33b 5b11 89bd 6d0f 1a3d 504a 99be
000001b0: 2e85 a8be db00 a53e 8d3b 28be 59ad 8e3c
000001c0: eff1 b7bd 66e5 0a3d f1ca 89be 5594 d73e
000001d0: bb47 85be 7ae9 be3e d3b7 b9be 1a29 a6bd
000001e0: 4ac4 753e 7755 9f3d d5dc 583d 9056 953e
000001f0: e593 823c 28bf 943e e473 c93e ed9f abbe
00000200: 2f9e aebd e7b6 c83d e27e cabd d896 28bd
00000210: d9ef 113e bf8b 93be 98bc 7ebe 186e 4ebd
00000220: 63b1 b33d 5816 6abe 25ce a0bd aafc 8c3d
00000230: 9f8a a1bd 966c 803d da2e 6b3c 3fed 69be
00000240: b803 2dbe 8994 b4bd c94c f2bd 839d 823e
00000250: 6d1d 193e 07a6 273d 429a 5bbd 7cc3 203e
00000260: 8c0e 613d d235 d23e 90ab 943d db73 8dbd
00000270: 03da d8bd ed24 d83d 11e4 9fbe fb2d 413c
00000280: f277 123e 0993 92bd ab8a 5abe 7e2f 34bd
00000290: 9bec 333e 4a88 d2bd 6125 de3c 3434 473d
000002a0: 0247 6c3c 0edc c63d a77c e6bd e89b 51be
000002b0: cfcb 853d 134b 9fbd bc54 843d 17e4 c43e
000002c0: 87b9 e63d 0213 853a f7f4 c83d 53b8 73be
000002d0: 10a3 2c3e 9e93 8fbd d7d0 943d e446 adbe
000002e0: 5f7c 093e d463 b83c b382 34be 604d e8be
000002f0: 6b15 dfbe 0f89 edbe 9589 a53d 1501 e13b
00000300: fa94 22be ac4d b7bc 3c53 bc3d 56c8 013e
00000310: 0b7e ee3b cd62 c7bd 8a00 903e 5ce7 0ebe
00000320: 7286 c73c 2f68 483e 2009 013e 17ea 493e
00000330: 9222 4c3e a18f 0e3e 3199 2e3d 1e97 a0be
00000340: e9d0 a8be 4606 6bbe dbec 533e a3d6 f73d
00000350: 79a5 dc3d 1e4f 0e3d b282 31be ac2b 0dbe
00000360: 314e 5f3e 74dd 423e ad75 35be 77ca 1bbe
00000370: 090b ab3e 83b7 5ebc 1ef2 1e3c ef7e 01be
00000380: 7998 e13d 992c ba3e 830f 033e f269 1f3d
00000390: 55f5 8ebe 09be 063e ebe6 463e 2d5b 31bd
000003a0: 0baf 583e 1730 94be 6fd2 693d 4625 b23d
000003b0: 6461 a0bd a349 f6bd 0ce8 eebc 14dc cb3c
000003c0: ac99 993d 1840 aa3d ad1e 013e 5ed0 4d3e
000003d0: 1735 90bc 7cfc 50bd 9cdc 093e 0d90 97bc
000003e0: a976 0fbe 7252 5b3e 905b cdbe d819 9e3e
000003f0: af81 bf3e a5ad 433d bc12 20bd b49e 57be
-0.0118930675 0.11294929 0.08659766 0.034784008 0.06567432 -0.107461415 -0.18146092 0.03609813
-0.424743 0.18540673 0.09011672 0.19212635 0.0018918501 -0.16264684 -0.085584946 -0.09768889
0.16739738 0.27621347 0.11369029 0.28943473 -1.6417701 0.018018814 0.12366343 0.08143045
-0.23195606 0.0658156 -0.0517005 -0.28324342 0.19903904 0.47097003 -0.14243883 -0.10842395
0.21101302 -0.2954429 0.069504656 0.24820048 -0.07246363 -0.3345999 0.081149876 0.4007235
0.0873401 -0.1557135 0.2637937 0.15183803 0.14086002 0.19272947 0.20282735 0.14177182
0.18169299 0.09157676 -0.06319366 0.14613508 0.036479298 0.1422712 -0.16991448 0.03435933
0.032210506 0.022384938 -0.31679907 0.020097386 0.011152628 -0.04698193 -0.022170374 -0.20050642
0.11857203 0.114995845 0.050812617 0.13286817 -0.069518775 -0.19499512 0.041620944 -0.23505554
0.17713441 -0.04956585 -0.047892768 -0.030861426 0.8293776 0.3473192 0.03789239 -0.31816462
-0.49531472 -0.24539512 0.42454746 -0.41903389 -0.6180867 0.1618718 0.017226484 -0.32630482
-0.40060967 0.18917719 -0.78128654 -0.20278947 -0.43364528 0.067065634 0.44410416 -1.3458835
-0.22621441 0.023980469 -0.44981566 -0.27731952 -0.33992857 -0.024930367 0.1154766 0.12805186
0.0064412965 -0.066927634 0.037612367 -0.29939508 -0.32914108 0.32227215 -0.16428967 0.017416643
-0.08981692 0.033910178 -0.26912645 0.42105356 -0.26031289 0.37287503 -0.3627306 -0.08113308
0.2400066 0.07779973 0.052944977 0.29167604 0.015939662 0.2905209 0.3934623 -0.3352045
-0.08526265 0.09800511 -0.09887482 -0.04115948 0.14251651 -0.28817555 -0.2487663 -0.050397962
0.08774068 -0.22860086 -0.07851819 0.06884129 -0.07887768 0.06270711 0.014354432 -0.22844408
-0.1689595 -0.08817393 -0.11831052 0.25510797 0.14952631 0.04092982 -0.05361391 0.15699571
0.054945514 0.41056687 0.072592854 -0.06906863 -0.105884574 0.10553918 -0.31228688 0.011790748
0.14303568 -0.07156951 -0.2134196 -0.043990605 0.17570727 -0.10279901 0.027117433 0.04863377
0.014421226 0.09709941 -0.11254244 -0.2046963 0.06533014 -0.07777991 0.06461474 0.3845527
0.11265855 0.001015276 0.09812348 -0.23800783 0.16859078 -0.070105776 0.072663955 -0.33843148
0.1342635 0.02250854 -0.17627983 -0.45371532 -0.43571028 -0.4639363 0.08082882 0.006866584
-0.15877143 -0.022375904 0.09195563 0.12674078 0.007278209 -0.09735642 0.2812541 -0.13955444
0.0243561 0.19570993 0.12601137 0.19718204 0.19935063 0.13921978 0.042626563 -0.31365293
-0.32971886 -0.22951612 0.20695822 0.121014856 0.10773749 0.03474342 -0.17335013 -0.13786191
0.21807171 0.1902979 -0.17720671 -0.15213953 0.33406857 -0.013593557 0.00970128 -0.12646078
0.1101541 0.3636215 0.12798886 0.038919397 -0.27921548 0.1315843 0.19424026 -0.043299843
0.21160524 -0.2894294 0.05708545 0.086985156 -0.07831076 -0.12025764 -0.029163383 0.024885215
0.07500014 0.08313006 0.12609358 0.20099017 -0.01760344 -0.051022038 0.13463062 -0.018501306
-0.14010109 0.21418169 -0.4010892 0.30879092 0.37403628 0.047773022 -0.039080366 -0.21056634

out_embed.weight f4 [1223, 25]
00000000: f0f4 babd bf16 863e 1a9c 303e 578d 193e
00000010: f470 b5bd f14b 3b3e 9ec7 84be bc94 cf3d
00000020: 0498 7a40 87ae ab3c 4413 7bbc 6b0f a43d
00000030: f821 96bb 8b26 51be d49f 16be 0687 2abe
00000040: 4c11 603e 6ad0 843e 93a5 c03d 2016 953e
00000050: d6d6 afbf db21 3aba 9e07 fc3d de15 7fbb
00000060: ea5a b4be 2c8f babd ddb2 cdbd 770d b73e
00000070: 4995 69be f59f 34bf 4c4d c2bc b843 773e
00000080: 8e03 88bd 01f3 1540 2748 d5bd a006 d8be
00000090: f6e2 1ebe ded0 a03e 3ff6 d3bb c6ac e3be
000000a0: c77b 953d db01 763e 20f0 0f3e 288e 45bc
000000b0: ae2d aebe abc1 d73e 9ffb 40be e599 5cbe
000000c0: ec9b 9ebe b60d 40be 529b 17be 01b5 563d
000000d0: 0f48 0d3d 1afe fe3d 5a2c e7bd 53c3 203e
000000e0: d366 dc3c cc27 1ebe dcfe 2e40 d983 dc3d
000000f0: d686 573d 3434 b6bd 3846 453d 476d 1abd
00000100: 459e 113e 51ed 493e 8d8f 90bd dc38 803c
00000110: 897c 44be 4a8e 80bc a0a9 b03e 113c aabd
00000120: d1a3 573e 6dc2 3d3d 2cda 95bd 59b7 f8bd
00000130: 38dc 093e 018a 633e d0d0 403e 05ce 48bc
00000140: b704 77be f6bd cdbd 58e2 f8be 2daf ae40
00000150: c1b2 a43f faef 98bd ee9c e4bd 6adb fc3d
00000160: 6fa8 cabe 8f0f 84be 804e febc 8df0 a03e
00000170: b36d 02be 8503 a0be 57c1 213f 230f 81bf
00000180: ae0d b53e 5306 8ebe 0dcf 183f e2f6 c6be
00000190: 337f c9be f26f 8e3e 15f5 e13d 1e58 843e
000001a0: 1d59 07be ab97 8e3e 34ca 4bbd e106 153d
000001b0: e014 4d40 b950 d8be 8004 b7bd 6e85 60bd
000001c0: 54fd 99be 29c0 ed3d 47de fe39 0061 b83d
000001d0: 4acd 11bf d466 213e bf72 22be 9381 a5bd
000001e0: 9343 ff3e 3b0e efbd 94e0 683e 3ff5 99bd
000001f0: 132c 1cbe 8d99 b2b9 868e 8d3d 96c9 91bc
00000200: 2382 a2be 7c89 80be 7dc2 9fbc 279c 243e
00000210: 12a5 f7be 4039 4f40 e949 63be 4a75 68be
00000220: 54e9 7e3e 382f 293e 3bbf 14be 27ed 10bd
00000230: 9b91 a23d 62a5 033e 74a8 a0ba 714e a9be
00000240: 1b93 91bc 3428 443e 1345 293d 77db a23d
00000250: 52a0 163e 470c 05be 61db 45be 228f 46bd
00000260: d08b ac3e dc50 4c3e 013b dabe eb3c c43d
00000270: 5e6f 023e 5abf 6bbe 7ee1 4640 6b42 513e
00000280: b28d a9bd 054d e8bd 393b 303e c576 65bd
00000290: aeda 37be c105 a13c 7d69 c73d 4b5e 2fbd
000002a0: 7db0 9dbd 37c8 653c 8a9c 373e 9d07 e6bd
000002b0: 41b4 f0bd 4ea9 c7bd b12e 2cbe 0e6a 053e
000002c0: 89c8 56bc 53fd 4d3e e312 943d f520 95be
000002d0: f946 c43e 5ca9 c3bd a540 1dbe f77e 4940
000002e0: 1a92 87be 4503 183e cda1 1f3a b853 e3be
000002f0: 89cd a2be 8df6 c1bd 16de 083e 2c03 bebd
00000300: 1a5b 19be ac7d d73d 72c1 b13e ae8e f53e
00000310: ab75 333e 4575 8c3d d7b6 a73d d8aa 3cbe
00000320: 7d83 0bbd 7d8e 643e 0fc3 ab3d 8c21 9c3e
00000330: 223d 2d3e 1c42 df3e d97b c8bd f02f a3be
00000340: dd31 5040 ffa3 99bd bd24 1e3e fd2b d43d
00000350: 2ae2 c93d 0694 a63d dcb0 bfbd 5555 59be
00000360: ca84 123e 6e8d ed3d 32d5 4abe e7d8 68be
00000370: 157e 113f 2bf4 68bc 0956 ddbd 4ed2 babd
00000380: 2a12 ebbc 704e 0c3e 0553 f7bd 396a c83d
00000390: f2a8 b5be f8fe d3bd 8cd2 9e3e c70e 3d3d
000003a0: b09a e1bd 7129 4940 7202 a33d 78c8 e4bd
000003b0: 347d 2b3d 64f2 ef3d d96a 35bc f166 9abd
000003c0: 41b7 423e dc08 e23c 5ef7 553c 88e9 ec3d
000003d0: fcae b03d 2675 913e 76e2 403e 3bdd d7bd
000003e0: 94ba 7dbe 7bc7 063e ea1b 9fbe 456c 903e
000003f0: cb29 9c3e 53f9 803d 9602 dcbd f2fa 1a3d
-0.09128749 0.2618923 0.17247048 0.14995323 -0.08859435 0.18290688 -0.25933546 0.10135791
3.9155283 0.020957245 -0.0153244175 0.08010753 -0.004581686 -0.20424859 -0.14709407 -0.1665307
0.21881598 0.25940257 0.09406581 0.29118443 -1.3737438 -0.0007100382 0.1230614 -0.0038922946
-0.35225612 -0.09109339 -0.10043881 0.3575246 -0.22810854 -0.70556575 -0.023718499 0.24146926
-0.06641303 2.3429568 -0.104141526 -0.42192554 -0.15516266 0.31409353 -0.006468564 -0.44467753
0.07298999 0.24024145 0.14056444 -0.0120578185 -0.34019226 0.42139944 -0.18845986 -0.21543081
-0.30978334 -0.1875523 -0.14805344 0.052418713 0.03449255 0.1245081 -0.11287756 0.1569951
0.0269045 -0.15444869 2.7343054 0.107673354 0.052618824 -0.08896676 0.04816267 -0.03770187
0.14220531 0.19719435 -0.0705863 0.015652113 -0.19188131 -0.015692849 0.34504414 -0.08312238
0.21058585 0.046327997 -0.073170036 -0.12144346 0.13462913 0.22220613 0.18829656 -0.01225615
-0.24122892 -0.10045998 -0.48610187 5.458884 1.2867051 -0.07467647 -0.111627445 0.123465374
-0.3958163 -0.2579312 -0.031043291 0.31433526 -0.1273716 -0.31252685 0.6318564 -1.0082744
0.35362 -0.277392 0.59690934 -0.38860232 -0.39354858 0.27819782 0.11033074 0.25848478
-0.13217588 0.27850088 -0.049753383 0.036383513 3.204399 -0.42249086 -0.08936405 -0.05481475
-0.30076087 0.11608917 0.00048612265 0.09002876 -0.5695387 0.15761882 -0.15864085 -0.08081355
0.49856243 -0.11672636 0.2274192 -0.0751748 -0.15251188 -0.0003406521 0.0691195 -0.017796319
-0.3173991 -0.25104892 -0.019501919 0.16075192 -0.48368126 3.2378693 -0.22196163 -0.22700992
0.24893695 0.16521919 -0.14526074 -0.035382416 0.07937928 0.12856057 -0.0012257234 -0.3306766
-0.01777034 0.19155961 0.04132564 0.07952016 0.14709595 -0.12992965 -0.19321968 -0.048476346
0.33700418 0.1995272 -0.4262314 0.09581932 0.12737796 -0.23022214 3.107513 0.20435493
-0.08278979 -0.11342815 0.17210092 -0.05602147 -0.17954513 0.019656064 0.09736917 -0.042814534
-0.07699678 0.014024786 0.17930809 -0.11231921 -0.11753131 -0.09749089 -0.16814686 0.13028738
-0.013109335 0.20116167 0.07230165 -0.29126707 0.38335398 -0.09553787 -0.15356691 3.1483743
-0.26478654 0.14844997 0.0006089479 -0.4439981 -0.31797436 -0.09470854 0.13365969 -0.09277949
-0.14976159 0.10522017 0.347179 0.47960418 0.17525356 0.06858305 0.08189171 -0.18424547
-0.034060944 0.2231998 0.08386814 0.30494344 0.16917852 0.43605125 -0.09789247 -0.3187251
3.2530434 -0.07501983 0.15443702 0.103599526 0.098575905 0.08133702 -0.09359905 -0.21223958
0.14308468 0.11599241 -0.1980789 -0.22738992 0.5683301 -0.01421837 -0.108074255 -0.09122144
-0.028695185 0.13701797 -0.120763816 0.09785885 -0.35480458 -0.10351366 0.3102001 0.04615667
-0.110158324 3.1431544 0.07959451 -0.11171049 0.04186745 0.11716154 -0.011072838 -0.07539166
0.19015218 0.027592115 0.013059465 0.1156798 0.086271256 0.2840969 0.18836388 -0.10540243
-0.24778205 0.13162033 -0.31075984 0.28207603 0.30500636 0.06297555 -0.10742681 0.037836976
